saved_models/model_genre.pt (torch, 32009 bytes, 26 tensors)

weight f4 [20, 24]
-0.535069 0.7257673 0.12571043 -1.2872046 1.7614675 -1.1479341 0.615987 -0.48821604
-2.806719 2.5931396 -1.4657505 -1.1654497 -1.2884166 -1.6284329 -1.2797983 -1.3597292
0.36957058 -0.61920303 1.5406166 -4.2732453 -0.9286572 0.49736467 2.0670629 1.0202833
-0.21011679 1.9382652 2.5508845 1.4630857 0.3604857 1.5563135 0.10436242 0.15335658
1.1140509 -1.0359087 0.29281697 0.9608825 0.40540776 -0.38780406 -1.5271654 0.85415787
-0.42365545 0.2960636 0.013648235 5.242493 -0.17455289 0.11737344 2.4760158 1.009663
0.2853381 -0.88864934 1.4987266 0.6021954 0.47503382 -0.10709823 0.20434703 -0.4418926
1.05402 -1.1594666 2.5732598 1.8664193 -0.039520714 -0.5070971 0.6879801 1.3926522
0.5721215 0.45049927 0.7073054 2.736874 0.59742016 -0.007681379 1.3687379 -0.212954
-0.76148635 -1.0487826 0.8319434 1.3092228 1.4088941 0.7263062 2.5002086 -0.71196383
-0.22780734 -0.8108854 0.9979657 2.0429215 0.17152776 -0.42719263 -0.60382736 2.1788948
-0.33444068 0.74185854 0.47541523 -0.7602023 0.6690246 1.4815347 -1.4305161 0.44354388
0.8664869 0.4642774 -0.48515588 0.5680897 0.8307048 -0.62061715 0.0028401942 -0.83279085
-0.13629903 1.2137431 -1.5586534 -0.09149806 -1.2930893 -1.0417591 0.329611 -0.7162593
0.4853862 1.4505981 -0.24181752 -0.5350529 -1.4682742 1.2825981 0.6797433 -0.336708
-1.0519196 -0.9106774 6.3985114 0.32854307 3.0798376 -0.121099964 -0.26846308 -1.1229966
-8.665634 1.9378077 -0.15159824 -6.801914 -1.643731 -4.092896 -5.092526 0.75179285
3.768302 1.7460741 3.1067252 -12.866993 -1.1715401 4.038926 7.1193776 -3.7107022
0.746397 0.11960419 0.17003094 -0.26732036 -0.69971734 -0.6410571 -0.28064016 -0.6598534
-0.40592518 1.4728767 1.3841841 -0.4859402 -0.89486426 0.2639777 -0.7031224 -0.22783361
-0.3382287 -0.060001764 -0.37698272 0.03949347 -0.44936734 -0.9790615 -0.40116706 0.052852616
-2.5389776 0.6704412 0.7703784 20.625774 -1.5888581 1.102891 2.3445709 1.2609621
-9.103316 1.9332582 -2.5040383 -8.10652 0.29272437 -0.6642893 -5.4019723 7.287534
0.1469751 -3.7813184 6.8615274 -14.224649 0.24860442 10.812532 1.8691152 2.7350717
2.2222874 0.4480276 -3.0778308 0.28638145 1.6631633 0.08234145 1.9269973 -1.1661377
-0.46580905 1.3811136 -1.7234858 -1.0109766 -1.0097516 -0.28900138 -1.8028716 -1.2780883
-0.12110755 3.1014662 -1.8388319 -3.2907782 -0.4374668 3.7148502 0.95983416 -2.5744293
0.054783665 -0.57142645 0.05488769 -0.70974016 -0.7848881 0.35384867 3.5948684 0.9190321
-0.788461 -1.0765506 1.2437901 -0.0021319736 1.5293726 -2.024466 0.83576727 -1.3535577
-2.0089417 2.0672917 -0.07902503 -2.4074717 1.7771784 1.196241 -0.22996634 -0.30438948
0.43865702 0.6876901 1.3025261 -0.32086286 -0.7503517 0.14084938 -0.59989667 0.6529892
1.9731435 -0.507327 1.419973 1.7495408 0.33066165 -0.5433978 0.366528 2.0858123
00000000: 48fa 08bf e3cb 393f 3cba 003e 1fc3 a4bf
00000010: c477 e13f 81ef 92bf 53b1 1d3f 74f7 f9be
00000020: 49a1 33c0 00f6 2540 b69d bbbf 752d 95bf
00000030: d6ea a4bf 7d70 d0bf 6ed0 a3bf 9b0b aebf
00000040: 5b38 bd3e 1784 1ebf ed32 c53f 6dbe 88c0
00000050: 7abc 6dbf 95a6 fe3e c24a 0440 a598 823f
00000060: db28 57be 1319 f83f b141 2340 6446 bb3f
00000070: 9591 b83e 4835 c73f f7bb d53d 8209 1d3e
00000080: 3899 8e3f a898 84bf 1bec 953e 65fc 753f
00000090: 9b91 cf3e 418e c6be 287a c3bf 17aa 5a3f
000000a0: 5ee9 d8be a695 973e d99c 5f3c 81c2 a740
000000b0: febd 32be 7c61 f03d 0b77 1e40 a33c 813f
000000c0: d617 923e 867e 63bf 46d6 bf3f 7a29 1a3f
000000d0: a237 f33e 5156 dbbd 5940 513e bf3f e2be
000000e0: 21ea 863f 6769 94bf 4ab0 2440 d4e6 ee3f
000000f0: 79e0 21bd 1ed1 01bf 771f 303f 6d42 b23f
00000100: 8e76 123f d7a7 e63e f711 353f f228 2f40
00000110: 87f0 183f 14b4 fbbb ce32 af3f 9d10 5abe
00000120: c5f0 42bf 823e 86bf 3efa 543f 9d94 a73f
00000130: a456 b43f 34ef 393f 6b03 2040 4343 36bf
00000140: 5446 69be 3096 4fbf ae7a 7f3f 3abf 0240
00000150: f9a4 2f3e feb8 dabe 6e94 1abf 0373 0b40
00000160: cf3b abbe 71ea 3d3f a069 f33e 9e9c 42bf
00000170: 3245 2b3f eea2 bd3f 271b b7bf 2f18 e33e
00000180: 16d2 5d3f c4b5 ed3e 5a66 f8be 546e 113f
00000190: 12a9 543f c4e0 1ebf 8d22 3a3b c831 55bf
000001a0: f991 0bbe ef5b 9b3f f481 c7bf 5663 bbbd
000001b0: f383 a5bf 5d58 85bf c6c2 a83e c55c 37bf
000001c0: 8a84 f83e 33ad b93f 039f 77be 3af9 08bf
000001d0: 69f0 bbbf 2d2c a43f a803 2e3f fe64 acbe
000001e0: 4da5 86bf 2722 69bf 9bc0 cc40 cc36 a83e
000001f0: 0f1c 4540 4203 f8bd fe73 89be 5abe 8fbf
00000200: 70a6 0ac1 150a f83f 923c 1bbe 48a9 d9c0
00000210: c765 d2bf 01f9 82c0 f9f5 a2c0 7f75 403f
00000220: dc2b 7140 5b7f df3f 96d4 4640 34df 4dc1
00000230: 07f5 95bf e23e 8140 f1d1 e340 257c 6dc0
00000240: e013 3f3f 0bf3 f43d 971c 2e3e 37de 88be
00000250: ad20 33bf 511c 24bf 11b0 8fbe 27ec 28bf
00000260: 6dd5 cfbe 3987 bc3f f22c b13f 27cd f8be
00000270: d315 65bf 1628 873e d4ff 33bf 374d 69be
00000280: 502c adbe 69c4 75bd e103 c1be e8c3 213d
00000290: 7a13 e6be c6a3 7abf c565 cdbe fc7b 583d
000002a0: 9c7e 22c0 09a2 2b3f 8537 453f 9601 a541
000002b0: b45f cbbf 882b 8d3f 730d 1640 3567 a13f
000002c0: 2fa7 11c1 0175 f73f 2a42 20c0 4eb4 01c1
000002d0: f8df 953e dd0e 2abf f5dc acc0 7b33 e940
000002e0: a480 163e 1f01 72c0 a291 db40 2a98 63c1
000002f0: 2892 7e3e 2200 2d41 2b3f ef3f 6a0b 2f40
00000300: f539 0e40 e063 e53e 2efb 44c0 97a0 923e
00000310: 89e2 d43f a2a2 a83d d9a7 f63f 0044 95bf
00000320: 867e eebe 55c8 b03f 2f9b dcbf ae67 81bf
00000330: 8a3f 81bf fdf7 93be 7fc4 e6bf 6698 a3bf
00000340: 3c07 f8bd 6c7e 4640 d85e ebbf 1c9c 52c0
00000350: a6fb dfbe 1bc0 6d40 b1b7 753f 73c3 24c0
00000360: d664 603d 0149 12bf ead1 603d 88b1 35bf
00000370: 6dee 48bf a72b b53e 5312 6640 b045 6b3f
00000380: 95d8 49bf 69cc 89bf 8434 9f3f 95b8 0bbb
00000390: 7bc2 c33f da90 01c0 d8f4 553f 6141 adbf
000003a0: 8092 00c0 824e 0440 e0d7 a1bd 0414 1ac0
000003b0: 957a e33f 6d1e 993f 4c7c 6bbe f0d8 9bbe
000003c0: a797 e03e 750c 303f 2db9 a63f 2348 a4be
000003d0: 0d17 40bf d23a 103e d492 19bf 4d2a 273f
000003e0: f78f fc3f 2fe0 01bf adc1 b53f f4f0 df3f
000003f0: 7c4c a93e 1e1c 0bbf 8fa9 bb3e f37d 0540

bias f4 [20]
-0.04257684 0.1899567 0.14447805 -0.057863966 -0.15958898 0.029905615 -0.15998217 -0.06667749
-0.19718075 -0.13928363 -0.087802656 0.006102118 -0.05439833 -0.112856135 -0.1909092 0.032684542
-0.10838802 0.028788833 0.030428287 -0.16259281
00000000: 0d65 2ebd 0284 423e 0ef2 133e c402 6dbd
00000010: 4b6b 23be 9ffc f43c 5ed2 23be 358e 88bd
00000020: c0e9 49be 5ea0 0ebe e1d1 b3bd 47f4 c73b
00000030: c9d0 5ebd 1e21 e7bd b47d 43be 3ae0 053d
00000040: 8afa ddbd 8fd6 eb3c be44 f93c bb7e 26be

weight f4 [20]
-0.18295765 0.37051117 -0.03693498 -0.3118303 -0.16098873 6.1815042 -0.10277109 5.137886
0.15267809 -0.18883528 -0.062318247 -0.09555502 -0.3152992 -0.01632485 0.1366517 0.11207544
0.5302677 -0.058288656 -0.24420223 -0.050551593
00000000: 4059 3bbe a4b3 bd3e 2249 17bd 39a8 9fbe
00000010: 3bda 24be e2ce c540 a679 d2bd 9069 a440
00000020: a557 1c3e 095e 41be 6b41 7fbd 5ab2 c3bd
00000030: e66e a1be b1bb 85bc 6cee 0b3e cf87 e53d
00000040: a0bf 073f 16c0 6ebd 2610 7abe 300f 4fbd

bias f4 [20]
-2.791236 -1.3428031 -1.4775602 -1.5111506 -1.0868781 -2.6963134 -1.0182791 9.236466
-3.2901502 -2.7704887 -0.7702855 -0.46738723 -1.3644718 -1.046723 -1.0152534 -1.0272651
-1.7519401 -1.3153763 -1.9336617 -0.85141134
00000000: 9ca3 32c0 f9e0 abbf b120 bdbf 626d c1bf
00000010: d21e 8bbf 6690 2cc0 f856 82bf 91c8 1341
00000020: d291 52c0 b04f 31c0 6e31 45bf 614d efbe
00000030: 03a7 aebf 05fb 85bf d3f3 81bf 6c7d 83bf
00000040: 933f e0bf 405e a8bf 3a82 f7bf 18f6 59bf

running_mean f4 [20]
3.940143 -5.916807 -4.091115 -2.6597295 1.2765131 6.503721 1.4401973 0.73044854
3.0088344 -0.22197689 -4.8374724 1.5222592 1.8405592 2.2003756 2.642362 0.93992704
6.2257833 -2.3750074 -4.9461627 -5.347431
00000000: 4e2b 7c40 7c56 bdc0 6aea 82c0 0239 2ac0
00000010: c864 a33f 7c1e d040 6358 b83f adfe 3a3f
00000020: be90 4040 e94d 63be 93cc 9ac0 64d9 c23f
00000030: 7297 eb3f f4d2 0c40 761c 2940 0f9f 703f
00000040: 9e39 c740 1f00 18c0 f746 9ec0 281e abc0

running_var f4 [20]
119.35051 175.73628 65.81438 27.819824 12.989467 837.2578 9.0469055 1866.0887
108.50788 84.97324 25.008759 54.758537 8.831061 11.487722 23.028154 14.773707
195.727 10.425827 69.15613 67.53799
00000000: 76b3 ee42 7dbc 2f43 f6a0 8342 008f de41
00000010: dbd4 4f41 8050 5144 20c0 1041 d742 e944
00000020: 0904 d942 4df2 a942 f011 c841 be08 5b42
00000030: 074c 0d41 b6cd 3741 a939 b841 1b61 6c41
00000040: 1dba 4343 30d0 2641 f04f 8a42 7313 8742

weight f4 [20, 20]
-1.20799 0.37457484 1.0540938 -0.16078562 -0.14847021 2.2252815 0.73229337 -4.540238
-0.87588507 1.6188545 0.8785708 0.23124649 0.14901237 0.39588657 0.6426359 0.20578554
0.6846344 0.38761443 3.1397207 -0.18502228 1.0451617 0.09582328 0.61646575 -0.17882581
0.5020709 4.4056907 -0.45278743 1.7420535 1.1015092 0.40255076 0.9055548 -0.28341666
-0.41820934 -0.70574087 -0.3029459 -0.37004393 1.664236 -0.33295304 0.5901258 -0.15040515
0.09938338 -1.3487713 -0.8828246 -1.1590341 0.16266014 -1.6209478 0.3062879 -13.147255
-1.0092762 -1.4328262 0.23303767 0.13201077 0.082618706 0.1996524 0.009551276 0.8173498
-0.42286652 0.8289852 -0.4083179 -2.1468642 0.14950646 0.12568378 -0.25079373 -1.2930632
0.67202556 -1.4278039 0.9523875 -0.28668457 0.28874806 -0.6526016 -0.39132875 -0.52906734
-0.6716414 -0.23496108 -0.1336567 -0.5694763 0.0047379136 -0.76166743 0.08041167 -0.75712377
-0.004174881 1.4693915 1.1290032 0.35139534 -0.055328958 -1.0703218 0.79697865 -1.4560288
-0.47763017 -0.34973288 0.9698197 0.3002979 -0.048338253 0.05274267 0.73546034 0.42114323
-0.14393207 -0.22431698 0.9121501 0.3774282 -0.00045583723 0.67464554 0.6950433 0.102183014
-1.3800449 -0.78010106 0.17607877 -0.7173409 0.804101 -0.3024392 -0.39429888 -0.30645204
0.023730692 0.62928706 -0.9683868 -0.2865294 -0.9143276 -0.7992754 0.20357871 0.780652
1.96947 0.34259593 -1.2928458 -0.8230306 -0.05562755 3.0487118 -0.53743976 2.0602536
1.2573026 -0.9238247 -0.77779627 -0.06305001 -0.8003808 -0.3209049 -0.3581516 -0.10529997
0.54344493 -0.8866151 -1.5473176 -0.377563 2.2592196 1.7604451 0.16941465 0.69261956
-0.4424862 2.45187 -0.50132006 3.982323 1.8352402 0.8371219 -0.13228278 1.0140765
0.12323498 -0.5912769 0.8505159 0.31855825 -1.1289818 -0.3243959 -1.9719903 0.64564204
-0.546809 -0.8131587 -0.53729683 -0.573449 -0.8959957 1.1257126 0.9772333 0.6913509
0.07614226 -0.2903646 -0.86234593 0.1913605 -0.5548501 -0.31204134 -0.007094943 0.44324356
-0.49682313 -0.92148244 -0.5842118 -0.9650813 1.4414629 0.3124459 -1.3257356 -0.39861354
-0.11444303 4.806516 -0.23222512 1.4075776 1.2599447 -0.09349174 -0.9636646 -0.45875368
0.24811848 0.086856 0.57552576 -0.32172906 1.6684318 -0.1374149 -1.4225719 0.4996864
-1.4277657 2.0196393 0.13960393 -0.6298035 0.13326497 0.27095738 0.23619473 -1.0739813
-0.1557898 -1.1406255 0.8363521 0.27495173 0.8108168 0.4513119 -0.72477496 0.016745472
-1.0881404 0.68734246 1.3874701 1.4290477 -0.34745717 2.011032 0.006018233 -0.58415455
-0.7075103 -2.7483006 0.3670392 -1.8862016 -1.7443312 0.10228623 0.53898126 0.501541
0.07065768 -0.5898001 0.012260276 -0.56115216 -2.737218 -0.34734777 -1.4227418 1.7614669
0.48819023 -0.20463765 0.39594355 -0.26727915 0.93093026 -1.0718824 -1.3360568 0.38706514
0.12457215 -0.6010167 -0.122742526 -0.78840417 -0.86991835 -0.7429112 -1.348267 -0.65793246
00000000: 6b9f 9abf 46c8 bf3e 8cec 863f fca4 24be
00000010: 9308 18be 036b 0e40 9477 3b3f a149 91c0
00000020: 013a 60bf a036 cf3f 04ea 603f e1cb 6c3e
00000030: b396 183e a5b1 ca3e c983 243f 72b9 523e
00000040: 3344 2f3f 6675 c63e 2ff1 4840 7b76 3dbe
00000050: dcc7 853f ff3e c43d b3d0 1d3f 1d1e 37be
00000060: b887 003f 6bfb 8c40 c1d3 e7be 9cfb de3f
00000070: 41fe 8c3f 221b ce3e 70d2 673f fd1b 91be
00000080: 891f d6be 6fab 34bf ba1b 9bbe 6676 bdbe
00000090: af05 d53f d278 aabe 7c12 173f cf03 1abe
000000a0: 8389 cb3d 8aa4 acbf cb00 62bf 3b5b 94bf
000000b0: 6190 263e 387b cfbf c5d1 9c3e 285b 52c1
000000c0: f62f 81bf d966 b7bf 6da1 6e3e d52d 073e
000000d0: ff33 a93d ae71 4c3e f57c 1c3c d63d 513f
000000e0: f681 d8be 6038 543f 0b0f d1be 3966 09c0
000000f0: 3918 193e 40b3 003e 0968 80be 1883 a5bf
00000100: de09 2c3f 47c2 b6bf abcf 733f 52c8 92be
00000110: c9d6 933e e610 27bf 3e5c c8be f570 07bf
00000120: b1f0 2bbf a399 70be 4ddd 08be 33c9 11bf
00000130: 8040 9b3b a3fc 42bf e0ae a43d ddd2 41bf
00000140: 71cd 88bb 0515 bc3f 2d83 903f 17ea b33e
00000150: 9ea0 62bd 4e00 89bf cb06 4c3f 275f babf
00000160: f18b f4be 3010 b3be 1b46 783f a5c0 993e
00000170: 55fe 45bd b308 583d 2147 3c3f 16a0 d73e
00000180: ee62 13be 5ab3 65be ab82 693f 453e c13e
00000190: 70fd eeb9 92b5 2c3f 5cee 313f 5445 d13d
000001a0: 50a5 b0bf b4b4 47bf fe4d 343e a7a3 37bf
000001b0: 90d9 4d3f 50d9 9abe 8be1 c9be 48e7 9cbe
000001c0: de66 c23c f518 213f 33e8 77bf fbb3 92be
000001d0: 6011 6abf 509d 4cbf f076 503e cfd8 473f
000001e0: 9817 fc3f bc68 af3e f97b a5bf 22b2 52bf
000001f0: b7d9 63bd 181e 4340 a795 09bf 32db 0340
00000200: 4bef a03f c77f 6cbf a81d 47bf 5d20 81bd
00000210: c2e5 4cbf a64d a4be a65f b7be 83a7 d7bd
00000220: 351f 0b3f 35f9 62bf 810e c6bf f04f c1be
00000230: 0e97 1040 4456 e13f 097b 2d3e 844f 313f
00000240: 8d8d e2be 70eb 1c40 8356 00bf 61de 7e40
00000250: 27e9 ea3f 9f4d 563f 2375 07be 42cd 813f
00000260: 9f62 fc3d ec5d 17bf 69bb 593f 111a a33e
00000270: 7a82 90bf 3817 a6be 2e6a fcbf cc48 253f
00000280: adfb 0bbf 2b2b 50bf 498c 09bf 8ecd 12bf
00000290: f95f 65bf 5a17 903f f62b 7a3f 5ffc 303f
000002a0: 79f0 9b3d abaa 94be b4c2 5cbf 02f4 433e
000002b0: a80a 0ebf e2c3 9fbe b27c e8bb d2f0 e23e
000002c0: 9a5f febe 46e6 6bbf e88e 15bf 910f 77bf
000002d0: db81 b83f e9f8 9f3e b4b1 a9bf 1317 ccbe
000002e0: 1b61 eabd fbce 9940 6ccc 6dbe 812b b43f
000002f0: de45 a13f 9978 bfbd b9b2 76bf c3e1 eabe
00000300: c512 7e3e 8fe1 b13d a855 133f acb9 a4be
00000310: 2c8f d53f 7eb6 0cbe d616 b6bf e5d6 ff3e
00000320: 07c1 b6bf c541 0140 55f4 0e3e cd3a 21bf
00000330: 9d76 083e edba 8a3e 08dd 713e 3878 89bf
00000340: 5d87 1fbe 0400 92bf 2c1b 563f 79c6 8c3e
00000350: b191 4f3f 5a12 e73e da8a 39bf cd2d 893c
00000360: 2f48 8bbf adf5 2f3f 9f98 b13f 09eb b63f
00000370: e8e5 b1be c0b4 0040 9934 c53b 278b 15bf
00000380: 651f 35bf 28e4 2fc0 90ec bb3e 0e6f f1bf
00000390: 3f46 dfbf 717b d13d adfa 093f fe64 003f
000003a0: f9b4 903d 24fd 16bf 53df 483c aba7 0fbf
000003b0: 942e 2fc0 91d7 b1be 671c b6bf bf77 e13f
000003c0: 12f4 f93e 888c 51be 1db9 ca3e d0d8 88be
000003d0: 7251 6e3f 7133 89bf e903 abbf 672d c63e
000003e0: af1f ff3d 3bdc 19bf 6f60 fbbd dbd4 49bf
000003f0: f8b2 5ebf 6e2f 3ebf 0394 acbf 436e 28bf

bias f4 [20]
-0.16381419 -0.017229816 0.28968486 0.17130208 -0.19379596 -0.029251922 0.0560409 -0.08016428
0.2034066 -0.1650864 -0.15839833 -0.013022615 0.0022722525 0.14791594 0.106761105 0.19644053
0.1363341 0.10202733 -0.18134868 0.13034156
00000000: e8be 27be 8b25 8dbc 9351 943e d069 2f3e
00000010: 7372 46be baa1 efbc 258b 653d 2c2d a4bd
00000020: d249 503e 690c 29be 2c33 22be ce5c 55bc
00000030: 12ea 143b 4777 173e 91a5 da3d b527 493e
00000040: 2b9b 0b3e b4f3 d03d 78b3 39be 4278 053e

weight f4 [20]
-0.13705088 0.59286314 16.43884 0.13178761 -0.064111635 -0.29052547 0.3518682 0.9414658
-0.21613304 2.2226863 -0.17721617 0.21277909 -0.23558429 -0.1068997 0.68164176 -0.22365956
0.04710738 1.9056915 0.38715425 -0.0038322392
00000000: 1157 0cbe e1c5 173f bf82 8341 55f3 063e
00000010: f64c 83bd c1bf 94be 1228 b43e e703 713f
00000020: fb51 5dbe 7e40 0e40 2878 35be c3e2 593e
00000030: 023d 71be 3bee dabd 1380 2e3f 0307 65be
00000040: abf3 403d b3ed f33f 1539 c63e 4e26 7bbb

bias f4 [20]
5.2066474 -3.1250513 -0.9900801 -0.6959273 -1.4129837 -1.0621493 -1.308562 -3.1453872
-1.4816298 -1.3476967 -1.5862089 -1.1233337 -1.7228175 4.513279 -2.0891886 -1.5787331
-0.9286315 -1.9220197 4.175471 1.7481022
00000000: db9c a640 d700 48c0 e475 7dbf 4b28 32bf
00000010: a6dc b4bf 82f4 87bf f67e a7bf 064e 49c0
00000020: 0ca6 bdbf 5381 acbf e508 cbbf 66c9 8fbf
00000030: 4985 dcbf c86c 9040 44b5 05c0 ed13 cabf
00000040: cbba 6dbf be04 f6bf 759d 8540 d0c1 df3f

running_mean f4 [20]
-40.74858 22.645409 -127.64426 -4.504957 -15.616746 -7.9682074 23.946049 41.461903
8.358391 19.738049 -10.105956 -21.827057 2.2749658 -50.37372 25.53859 -8.817775
11.360017 6.063391 -54.213814 -48.86132
00000000: 8cfe 22c2 cc29 b541 dc49 ffc2 9c28 90c0
00000010: 31de 79c1 8efb fec0 8291 bf41 fdd8 2542
00000020: f8bb 0541 86e7 9d41 ffb1 21c1 d09d aec1
00000030: 0a99 1140 b07e 49c2 084f cc41 9b15 0dc1
00000040: a1c2 3541 4d07 c240 f2da 58c2 fe71 43c2

running_var f4 [20]
453.8919 283.1528 4696.8813 19.301155 78.955536 23.200129 236.16844 554.05865
28.74266 268.21887 27.130302 195.58965 6.5285897 705.9194 299.7166 30.739225
36.7192 218.17526 893.9657 802.45496
00000000: 2af2 e243 8f93 8d43 0dc7 9245 c468 9a41
00000010: 3ce9 9d42 dd99 b941 1f2b 6c43 c183 0a44
00000020: f8f0 e541 041c 8643 dc0a d941 f396 4343
00000030: 35ea d040 d77a 3044 badb 9543 efe9 f541
00000040: 76e0 1242 de2c 5a43 ce7d 5f44 1e9d 4844

weight f4 [20, 20]
-0.257937 3.2330859 -0.16127922 -1.4654236 0.27181742 -0.34580284 1.6770757 0.12778589
-1.0777617 3.1002939 0.096246295 1.5032724 0.12646541 -0.45601267 1.59368 0.50765747
-0.9058812 1.5225629 0.6885381 0.1650125 -0.1281601 0.024090001 16.540482 0.3017205
-0.6024762 0.41642216 -0.28876907 0.30585703 -0.57328665 0.46416473 -0.17312598 1.4433986
-0.2837772 0.15949424 -0.38278663 0.09104086 -0.037450466 0.32299343 -0.66774666 0.04422868
0.2763102 -0.888148 -1.4531673 -0.17568107 -1.0567477 -0.74416673 -0.3742653 0.041757904
-0.17943117 -0.6776147 0.57213926 0.8982804 -0.7376702 0.36651054 -0.5111998 0.17731743
0.5806202 -1.3931543 0.47495067 0.7385445 1.3141681 -2.641107 2.3613129 -1.2790905
-0.6717214 -0.43499517 -1.0713443 -0.7880263 0.7184317 -3.2560537 0.5096764 0.48650384
0.34524143 0.38766497 -1.6316524 -0.39975306 -0.6309759 -2.3912508 0.67662996 0.21270896
2.4466112 -2.465055 -5.7211156 -0.73425114 -0.324473 -0.326879 -2.1869485 -0.60827
-0.37718374 0.26177612 0.82365656 1.1086255 0.12846176 -5.180852 -3.1825657 -0.32329506
0.37681958 0.96642387 2.8532875 4.2940116 0.9026426 -1.7843828 0.4364426 0.35022625
0.06852982 -0.5664528 -0.45261055 0.42214862 -0.12738882 1.4025792 1.2824211 0.9177445
0.69344324 -0.076406 -0.47304654 -0.48817465 -0.3531166 0.96949905 1.42186 1.4582156
1.7233545 -0.6697819 8.273938 -0.20359518 -0.49226508 0.3137642 0.467381 -1.0022162
0.49453694 -4.872101 0.95890635 0.93724144 -0.5020808 4.1801386 0.7635142 -0.32459372
0.4822418 -4.0261297 4.801966 0.08522581 1.6994665 -3.289358 -4.2831407 -0.7236933
-0.42378628 0.16914287 -2.2649632 -3.0080025 0.41910478 -0.9114393 0.42022052 0.19006331
-0.04958903 -3.6616292 -3.459868 -0.21301977 -0.06191658 -1.6414132 4.817049 5.459126
0.8106409 2.0682464 2.3059235 0.45378542 -0.19876038 0.15717857 1.359082 1.5213025
0.35930312 2.7584062 0.94120556 0.57273626 0.13895133 -0.9590702 1.5402387 -0.24042046
0.64762205 3.3469598 1.8505316 1.6778015 -1.7392572 -1.8427448 9.663388 -0.2946716
-0.4663159 -0.3391325 -0.2952724 -0.25166115 -0.37257385 -3.1489658 -0.2875725 1.2697922
0.023464179 0.4110755 -1.4340369 0.1269254 0.526487 -3.19605 3.8164194 1.6527134
2.2399876 0.9988982 9.579546 -0.28619593 0.19607875 -0.010559585 1.1446531 4.767921
-1.1602994 2.9743812 -0.4971661 1.6976062 0.29423746 0.23963246 2.1369486 -0.6372968
-0.29122484 1.4350227 -0.071089014 -0.03734655 -0.9057854 1.4914008 -1.8632313 -0.26825225
-0.46554404 0.30479938 1.0335534 0.9532227 0.7147746 2.7456856 0.80516696 1.4975185
-0.51587874 -0.5771374 2.0280168 0.073299475 0.14939323 2.1727057 -0.49140257 0.51494366
1.400273 -0.51261973 0.21735872 0.67819864 1.0583096 -0.25540087 -0.7672208 -0.9052833
0.022816671 -0.018611206 1.8984733 2.0223875 1.0403975 0.6064466 0.40050262 0.12803008
00000000: 5210 84be e1ea 4e40 6126 25be 0093 bbbf
00000010: a72b 8b3e 120d b1be 6baa d63f 4eda 023e
00000020: 18f4 89bf 376b 4640 c71c c53d 3b6b c03f
00000030: 2680 013e 7e7a e9be b5fd cb3f d7f5 013f
00000040: d5e7 67bf 57e3 c23f 0844 303f 09f9 283e
00000050: 673c 03be 6558 c53c e852 8441 1c7b 9a3e
00000060: e13b 1abf 4935 d53e 8ad9 93be 4b99 9c3e
00000070: eac2 12bf 00a7 ed3e f047 31be 49c1 b83f
00000080: 3f4b 91be 7552 233e 9cfc c3be a173 ba3d
00000090: a965 19bd 655f a53e 72f1 2abf 2229 353d
000000a0: 8878 8d3e ab5d 63bf 6301 babf bde5 33be
000000b0: 8243 87bf b681 3ebf b49f bfbe 560a 2b3d
000000c0: cebc 37be 2878 2dbf b877 123f b4f5 653f
000000d0: f4d7 3cbf 45a7 bb3e fddd 02bf b392 353e
000000e0: 87a3 143f e152 b2bf bc2c f33e 4111 3d3f
000000f0: a936 a83f e607 29c0 c01f 1740 3db9 a3bf
00000100: eff5 2bbf b0b7 debe cf21 89bf 17bc 49bf
00000110: 24eb 373f 2f63 50c0 277a 023f 0817 f93e
00000120: 7cc3 b03e 067c c63e fcd9 d0bf 6fac ccbe
00000130: a387 21bf 410a 19c0 9f37 2d3f 61d0 593e
00000140: 4795 1c40 76c3 1dc0 6113 b7c0 e2f7 3bbf
00000150: 5321 a6be af5c a7be f7f6 0bc0 95b7 1bbf
00000160: 3a1e c1be 8507 863e 28db 523f 71e7 8d3f
00000170: 7b8b 033e 8ac9 a5c0 28af 4bc0 ee86 a5be
00000180: 7fee c03e 8e67 773f 439c 3640 8b68 8940
00000190: 9613 673f a866 e4bf 6875 df3e db50 b33e
000001a0: 5d59 8c3d 0d03 11bf 92bc e7be dd23 d83e
000001b0: 3772 02be b787 b33f 6026 a43f 4ef1 6a3f
000001c0: 7f85 313f c07a 9cbd 2833 f2be 07f2 f9be
000001d0: b3cb b4be 1731 783f 82ff b53f cfa6 ba3f
000001e0: e196 dc3f d476 2bbf 0d62 0441 417b 50be
000001f0: 2b0a fcbe b4a5 a03e 904c ef3e 9f48 80bf
00000200: f233 fd3e 40e8 9bc0 e37a 753f 0eef 6f3f
00000210: 5e88 00bf b2c3 8540 ab75 433f 2631 a6be
00000220: 66e8 f63e 0ed6 80c0 b5a9 9940 df8a ae3d
00000230: 1e88 d93f d784 52c0 7d0f 89c0 f743 39bf
00000240: 84fa d8be ca33 2d3e 28f5 10c0 1d83 40c0
00000250: e794 d63e 1654 69bf 2527 d73e f59f 423e
00000260: de1d 4bbd 2258 6ac0 7a6e 5dc0 db21 5abe
00000270: 3d9c 7dbd d419 d2bf 4425 9a40 29b1 ae40
00000280: 2986 4f3f 265e 0440 4094 1340 9056 e83e
00000290: d787 4bbe 6bf3 203e 66f6 ad3f 0aba c23f
000002a0: 94f6 b73e ba89 3040 d9f2 703f d89e 123f
000002b0: 4249 0e3e a085 75bf 8b26 c53f c830 76be
000002c0: 8fca 253f 9734 5640 38de ec3f 33c2 d63f
000002d0: fb9f debf 10df ebbf 3d9d 1a41 32df 96be
000002e0: f5c0 eebe c6a2 adbe f22d 97be bbd9 80be
000002f0: 00c2 bebe a888 49c0 b43c 93be 8d88 a23f
00000300: f337 c03c 7d78 d23e 858e b7bf bbf8 013e
00000310: dac7 063f 158c 4cc0 3740 7440 1d8c d33f
00000320: f55b 0f40 cbb7 7f3f d245 1941 4688 92be
00000330: dec8 483e 1c02 2dbc fe83 923f cf92 9840
00000340: b184 94bf 435c 3e40 8e8c febe 294b d93f
00000350: 4ba6 963e 3662 753e c4c3 0840 e225 23bf
00000360: 6c1b 95be d3ae b73f 1e97 91bd b2f8 18bd
00000370: 8de1 67bf 39e6 be3f 5d7e eebf 5c58 89be
00000380: ca5b eebe aa0e 9c3e 7a4b 843f 6706 743f
00000390: 78fb 363f 50b9 2f40 6c1f 4e3f b0ae bf3f
000003a0: a110 04bf 47bf 13bf 07cb 0140 091e 963d
000003b0: 8afa 183e 9c0d 0b40 1e99 fbbe 59d3 033f
000003c0: 253c b33f 0c3b 03bf 4993 5e3e 6d9e 2d3f
000003d0: b076 873f e7c3 82be 9568 44bf a5c0 67bf
000003e0: 07ea ba3c 8776 98bc 2c01 f33f cc6e 0140
000003f0: bf2b 853f 1640 1b3f ae0e cd3e 511a 033e

bias f4 [20]
0.06549213 0.070894845 -0.027924577 -0.0028648349 -0.047179505 0.017647734 -0.111431226 -0.026148757
0.13913906 -0.12005521 0.121874586 0.07951009 -0.029477784 0.066976 0.13148685 -0.1270077
0.19435595 -0.021838753 -0.039732687 0.15568614
00000000: bd20 863d 5131 913d 15c2 e4bc f4bf 3bbb
00000010: 4c3f 41bd fb91 903c 0e36 e4bd eb35 d6bc
00000020: 787a 0e3e 82df f5bd 6299 f93d 30d6 a23d
00000030: 657b f1bc b72a 893d 7da4 063e 4e0e 02be
00000040: 3f05 473e 2fe7 b2bc bebe 22bd 306c 1f3e

weight f4 [20]
0.50667447 -8.894096 -0.16025478 -0.0846943 0.13133113 -0.2982459 -1.0338821 0.101057015
-0.0035375156 0.01050842 -5.6344986 0.74256504 -0.404091 1.4114596 0.45648873 0.16712159
-0.100942954 0.30058798 -1.5840523 0.8903399
00000000: 6bb5 013f 384e 0ec1 d419 24be 3574 adbd
00000010: ab7b 063e b0b3 98be 4056 84bf fbf6 ce3d
00000020: aad5 67bb 822b 2c3c d04d b4c0 be18 3e3f
00000030: 04e5 cebe b5aa b43f e4b8 e93e ec21 2b3e
00000040: 2ebb cebd abe6 993e 3ac2 cabf 51ed 633f

bias f4 [20]
-3.5823228 4.7399616 -1.2705762 2.3727117 3.6254146 -1.104646 9.824277 3.0172074
-5.535928 4.402639 3.334348 -4.8385553 -2.4272392 -4.569467 -3.8470614 -0.97371024
-0.8783887 -2.0963006 -1.8355572 -2.8281305
00000000: c744 65c0 c4ad 9740 3ea2 a2bf 82da 1740
00000010: cb06 6840 0a65 8dbf 3d30 1d41 ed19 4140
00000020: 5226 b1c0 6be2 8c40 f565 5540 72d5 9ac0
00000030: e357 1bc0 1339 92c0 4136 76c0 1345 79bf
00000040: 15de 60bf ca29 06c0 8af3 eabf 1700 35c0

running_mean f4 [20]
0.6974968 98.24303 -3.2089348 24.028257 -25.625729 16.430326 94.72843 -4.966052
26.938267 67.84551 72.77696 -17.830221 19.83289 -21.058569 -9.335907 13.890597
1.407571 0.9884807 40.932755 -32.799335
00000000: 268f 323f 6e7c c442 305f 4dc0 df39 c041
00000010: 7e01 cdc1 4f71 8341 f574 bd42 e6e9 9ec0
00000020: 9281 d741 e7b0 8742 ce8d 9142 4ba4 8ec1
00000030: c2a9 9e41 f377 a8c1 e05f 15c1 e33f 5e41
00000040: 492b b43f 120d 7d3f 24bb 2342 8532 03c2

running_var f4 [20]
24.44162 24283.299 175.42586 601.0202 2848.556 18.22043 6664.5596 1480.3948
452.96704 8878.268 8032.4062 378.09674 4.755567 305.7134 199.87946 36.092896
48.021473 63.910725 925.77374 988.5099
00000000: 7088 c341 99b6 bd46 056d 2f43 4b41 1644
00000010: e508 3245 71c3 9141 7a44 d045 a20c b944
00000020: c87b e243 12b9 0a46 4003 fb45 620c bd43
00000030: 9b2d 9840 51db 9843 24e1 4743 205f 1042
00000040: fd15 4042 95a4 7f42 8571 6744 a220 7744

weight f4 [20, 20]
-3.1800342 -3.8916316 0.45947823 -0.06916029 1.2487543 0.7224294 0.75514555 1.0720874
-1.0371433 -0.6759142 -2.0824838 -4.1018457 -0.06470871 -5.8438 -2.7438295 0.12899527
-0.51450926 0.20712942 -0.5432237 -2.5198796 -4.102935 10.311782 0.31116816 2.5458567
2.119272 0.43642953 2.2650576 1.8474448 -1.0164815 2.5732055 -0.5997468 -3.8913393
-0.16523403 -0.41891876 -3.6092918 0.32254586 -0.2984391 0.26321462 -0.5694014 -0.020226687
-3.9630287 7.818595 0.1785712 -0.38559672 3.5147808 0.63909507 1.3626053 2.1066062
-1.0131826 -1.30289 1.8201631 -3.8699965 0.35016674 -2.6052234 -2.894022 -0.46694103
0.04669474 0.4965014 -1.9783262 1.0089382 -4.3479085 9.563928 0.35040787 1.9249719
1.8837117 0.285589 2.0565827 2.149621 -0.7448692 1.2026467 -0.08113244 -4.5326514
0.22661747 -0.47535747 -3.436424 0.40575355 -0.1391867 0.27002773 -0.258847 -0.02516951
-3.0618036 -5.493726 0.16143245 0.22506283 1.9383924 0.72706914 -0.5658622 0.96280205
-0.98645216 0.61633396 -2.0978413 -3.8605726 -0.15767774 -2.3341794 -2.7627056 -0.35417145
-0.11222185 0.22533667 -0.14935043 -0.119564965 -3.4999774 -3.6889088 -0.06720732 -0.014619069
2.7611737 0.29037294 -0.73886365 3.0043747 -0.7799308 0.18361184 -2.1464572 -3.9578772
-0.1299647 -3.0737143 -3.075323 -0.20376587 0.008160524 0.00855629 -0.65457404 -1.077891
-3.1214721 -5.0705686 -0.28941423 0.5832267 2.3061109 0.97181183 -0.906341 1.3067384
-1.0410991 0.3258552 -2.5394728 -3.676999 0.07711054 -3.0635355 -2.939562 -0.6293502
0.01587768 -0.14812721 -0.53725195 -0.76376355 -1.0080445 10.3949795 -0.8205571 -0.99895966
1.7142237 0.9677675 3.1275887 1.0030886 -5.9617424 -0.6430337 0.51002914 -2.95292
-0.9934431 -0.4153634 -1.5966871 -0.05050496 -0.43406928 -0.37173867 -2.336294 -0.17167579
-3.6901097 5.303968 0.26420844 -0.7199478 1.0140371 0.5689828 3.1331012 0.052969657
-0.60258114 -0.6703255 2.0514393 -4.09719 -0.10238371 -3.4990957 -2.998444 -0.45567042
-0.4258178 0.011695324 2.2896996 0.12370798 -3.0593648 -5.336373 0.37135625 -0.42721435
0.9243667 0.43345475 -0.743073 0.074778035 -0.60989785 -0.089239955 -2.49824 -4.957987
0.6855135 -4.3599772 -2.6609569 0.083151 -0.12127649 0.14173028 -0.31145245 -1.4672997
-3.725691 5.430875 0.601022 -1.2475231 4.792555 0.68829674 2.2081225 2.1984339
-1.063739 -1.2405062 1.5995908 -3.1642554 0.18727177 -2.3804922 -3.3047807 0.8821065
0.14250423 0.027219582 -0.6994687 0.11105366 -3.3539279 -3.6950247 -0.018718325 0.8078594
0.9260034 -0.040818397 0.6427188 1.051522 -1.1900635 -1.4709958 -2.5168736 -4.214878
0.7977452 -5.858317 -2.0112314 -0.0968005 -0.242816 0.632086 -0.28009227 -3.3082125
-0.3558212 11.846756 -0.30570897 -0.9251703 0.5120644 -0.8173365 1.61857 0.74590796
-4.5176053 0.26451755 -1.1835711 -1.647395 -3.2194233 0.07621682 -0.75379664 0.8743295
00000000: ae85 4bc0 7e10 79c0 bb40 eb3e e9a3 8dbd
00000010: 2ed7 9f3f 22f1 383f 3851 413f 293a 893f
00000020: 1dc1 84bf b708 2dbf 6a47 05c0 5242 83c0
00000030: 0086 84bd 6900 bbc0 e79a 2fc0 5617 043e
00000040: e1b6 03bf bc19 543e b510 0bbf b545 21c0
00000050: 3e4b 83c0 0ffd 2441 6f51 9f3e 51ef 2240
00000060: 27a2 0740 b173 df3e b4f6 1040 1279 ec3f
00000070: 111c 82bf 66af 2440 0289 19bf b40b 79c0
00000080: 1c33 29be 857c d6be a3fe 66c0 bb24 a53e
00000090: 02cd 98be 11c4 863e 4ac4 11bf 70b2 a5bc
000000a0: 43a2 7dc0 ee31 fa40 5edb 363e ef6c c5be
000000b0: 2bf2 6040 bc9b 233f da69 ae3f a3d2 0640
000000c0: f8af 81bf 19c5 a6bf 1bfb e83f 06ae 77c0
000000d0: 0e49 b33e fbbb 26c0 a837 39c0 e512 efbe
000000e0: fc42 3f3d 6e35 fe3e cb39 fdbf e324 813f
000000f0: 1122 8bc0 d905 1941 a968 b33e 7b65 f63f
00000100: 771d f13f b938 923e 0d9f 0340 6493 0940
00000110: bfaf 3ebf 54f0 993f c428 a6bd 7b0b 91c0
00000120: 690e 683e 0e62 f3be 5fee 5bc0 eebe cf3e
00000130: f586 0ebe 1341 8a3e 9887 84be 4a30 cebc
00000140: 97f4 43c0 9acc afc0 8c4e 253e df76 663e
00000150: 3e1d f83f 3421 3a3f 58dc 10bf 327a 763f
00000160: 2188 7cbf 10c8 1d3f 0843 06c0 9f13 77c0
00000170: 4676 21be 3263 15c0 2bd0 30c0 f655 b5be
00000180: 92d4 e5bd a8be 663e 52ef 18be 7ade f4bd
00000190: a1ff 5fc0 1517 6cc0 fea3 89bd d284 6fbc
000001a0: 12b7 3040 c3ab 943e 2b26 3dbf ad47 4040
000001b0: 8ba9 47bf be04 3c3e 8e5f 09c0 dc4d 7dc0
000001c0: 7715 05be bcb7 44c0 18d2 44c0 00a8 50be
000001d0: b8b3 053c ae2f 0c3c 2a92 27bf 55f8 89bf
000001e0: 33c6 47c0 1942 a2c0 1a2e 94be 584e 153f
000001f0: 5297 1340 a9c8 783f f705 68bf 3443 a73f
00000200: bc42 85bf 7ed6 a63e b986 22c0 f453 6bc0
00000210: 21ec 9d3d f710 44c0 c921 3cc0 181d 21bf
00000220: e911 823c a9ae 17be 5889 09bf 0286 43bf
00000230: 9a07 81bf d651 2641 0810 52bf d2bb 7fbf
00000240: af6b db3f 9cbf 773f 6a2a 4840 3565 803f
00000250: 98c6 bec0 db9d 24bf 4591 023f a4fc 3cc0
00000260: 4952 7ebf 83aa d4be 3e60 ccbf 4ade 4ebd
00000270: 543e debe 8854 bebe d785 15c0 c7cb 2fbe
00000280: c22a 6cc0 1bba a940 5446 873e 804e 38bf
00000290: f8cb 813f dba8 113f bb84 4840 b6f6 583d
000002a0: c242 1abf 749a 2bbf c84a 0340 2e1c 83c0
000002b0: 8dae d1bd 2ff1 5fc0 82e6 3fc0 a24d e9be
000002c0: ca04 dabe bf9d 3f3c 708a 1240 9c5a fd3d
000002d0: a2cc 43c0 91c3 aac0 6822 be3e d7bb dabe
000002e0: 4ca3 6c3f c8ed dd3e 083a 3ebf 3a25 993d
000002f0: 4422 1cbf 70c3 b6bd 2ae3 1fc0 d4a7 9ec0
00000300: d07d 2f3f ef84 8bc0 1e4d 2ac0 124b aa3d
00000310: cf5f f8bd be21 113e b276 9fbe 7ad0 bbbf
00000320: b971 6ec0 bac9 ad40 94dc 193f d6ae 9fbf
00000330: 9c5c 9940 3734 303f e151 0d40 24b3 0c40
00000340: 9928 88bf e8c8 9ebf 64bf cc3f 2983 4ac0
00000350: 2cc4 3f3e fc59 18c0 8781 53c0 bbd1 613f
00000360: a1ec 113e 9afb de3c 6110 33bf 1a70 e33d
00000370: c1a6 56c0 497b 6cc0 2c57 99bc e0cf 4e3f
00000380: 8f0e 6d3f 3131 27bd 3889 243f 4698 863f
00000390: 0054 98bf 9749 bcbf 7514 21c0 48e0 86c0
000003a0: 0839 4c3f 5577 bbc0 04b8 00c0 573f c6bd
000003b0: c2a4 78be 63d0 213f 4168 8fbe c1b9 53c0
000003c0: 322e b6be 508c 3d41 e385 9cbe f6d7 6cbf
000003d0: a716 033f f73c 51bf 4d2d cf3f d3f3 3e3f
000003e0: 3990 90c0 d86e 873e 427f 97bf d7dd d2bf
000003f0: 080b 4ec0 9017 9c3d d1f8 40bf 0fd4 5f3f

bias f4 [20]
0.048743054 -0.1935682 0.14864685 0.19317739 0.05893543 0.12446543 0.0017744714 0.031063054
-0.20979805 0.14851291 -0.052706752 0.21620655 0.03599758 0.108717546 0.16817309 0.1824209
0.03482768 0.08772958 -0.06392535 -0.06885932
00000000: cca6 473d be36 46be e136 183e 4bd0 453e
00000010: 4766 713d bbe7 fe3d 6195 e83a f277 fe3c
00000020: 4dd5 56be c513 183e 09e3 57bd 4065 5d3e
00000030: 3372 133d 4ea7 de3d 9135 2c3e 8bcc 3a3e
00000040: 78a7 0e3d 91ab b33d 4beb 82bd 1d06 8dbd

weight f4 [20]
25.301443 25.91541 25.33289 26.120794 27.942802 26.286797 27.776516 29.748558
23.031466 28.110998 22.511368 24.08174 30.281788 27.06672 29.777212 27.561947
29.779602 25.474485 26.350876 27.330751
00000000: 5b69 ca41 c252 cf41 c2a9 ca41 63f7 d041
00000010: dc8a df41 5c4b d241 4e36 de41 0cfd ed41
00000020: 7140 b841 53e3 e041 4817 b441 67a7 c041
00000030: 1a41 f241 a488 d841 bb37 ee41 de7e dc41
00000040: a03c ee41 bfcb cb41 98ce d241 61a5 da41

bias f4 [20]
22.910156 18.163893 17.23778 18.245499 23.521128 22.685701 23.434856 22.196617
16.527134 23.852993 16.021389 22.571045 22.648361 18.162664 22.323706 23.038883
22.205355 22.900581 18.419342 23.45547
00000000: 0048 b741 a74f 9141 f9e6 8941 c8f6 9141
00000010: 452b bc41 517c b541 967a bb41 ac92 b141
00000020: 9237 8441 eed2 be41 ce2b 8041 8091 b441
00000030: d82f b541 234d 9141 f396 b241 a24f b841
00000040: 91a4 b141 6434 b741 d05a 9341 cda4 bb41

running_mean f4 [20]
-23.903254 119.86539 87.15979 108.06837 -39.209473 -22.236803 -39.858097 107.468414
75.47503 -52.608364 81.350815 -28.13484 93.66241 85.79047 98.0419 -43.419724
107.52143 -25.534458 99.27612 -37.414734
00000000: dd39 bfc1 14bb ef42 d051 ae42 0123 d842
00000010: 80d6 1cc2 f9e4 b1c1 b16e 1fc2 d4ef d642
00000020: 37f3 9642 f76e 52c2 9eb3 a242 2714 e1c1
00000030: 2753 bb42 b894 ab42 7415 c442 ccad 2dc2
00000040: f90a d742 9246 ccc1 608d c642 b0a8 15c2

running_var f4 [20]
681.27216 2864.8289 2286.3188 2622.8757 1263.8026 701.77924 1235.4111 3370.5115
1403.3622 1328.0228 1283.3947 708.3752 3376.8032 2820.322 2770.9517 1572.2302
3656.1174 697.2855 2402.5125 867.1144
00000000: 6b51 2a44 430d 3345 1ae5 0e45 03ee 2345
00000010: aff9 9d44 df71 2f44 286d 9a44 2fa8 5245
00000020: 976b af44 bb00 a644 a16c a044 0318 3144
00000030: da0c 5345 2745 3045 3a2f 2d45 5e87 c444
00000040: e181 6445 4652 2e44 3328 1645 52c7 5844

weight f4 [22, 20]
4.3311048 0.6752725 1.8124415 0.79320836 4.9623275 5.0878015 4.931034 0.49910957
3.3515139 4.931828 3.026206 4.244111 -0.20128778 1.0620749 0.39288178 4.752303
-0.06119476 4.5237203 0.969692 4.9452696 -3.3479483 -2.0373259 -1.8253179 -1.7779028
-3.4377646 -3.3397036 -3.2279236 -3.0968142 -1.9284232 -3.2857177 -1.9972632 -3.1477318
-3.6206992 -1.7919458 -3.554379 -3.2726455 -3.898765 -2.9555542 -1.984268 -3.4944122
-15.941693 -12.252483 -11.927461 -12.041483 -17.232737 -16.24388 -16.211018 -11.639792
-12.97908 -16.09769 -12.622525 -15.726051 -11.250987 -11.736574 -11.974486 -15.680216
-12.02876 -14.976381 -11.82627 -16.554142 -17.09648 -12.4053755 -12.042204 -11.973562
-18.28889 -17.331234 -17.493496 -11.4396305 -13.183664 -17.141144 -13.245591 -16.69731
-11.748977 -12.545071 -12.939314 -17.143866 -12.741434 -16.323997 -12.370211 -17.681093
23.855759 -5.996157 -3.5805502 -5.1626697 24.753689 23.83117 24.549511 -2.6647356
2.791322 24.963375 1.9278904 23.209755 -2.6490316 -3.9284377 -1.7409438 24.390259
-3.2589917 23.827236 -5.6678762 24.53724 -12.579506 -10.596132 -9.162067 -10.178187
-13.305309 -13.045576 -13.129784 -6.997596 -9.6445465 -12.601566 -9.527926 -12.0253105
-4.575153 -9.352318 -6.0899453 -12.969015 -6.321793 -12.232913 -10.12764 -13.058038
-17.853672 -13.389793 -13.159861 -12.858763 -19.021135 -17.896214 -18.19493 -13.204821
-14.062539 -18.064995 -13.993876 -17.963224 -14.815736 -13.300384 -14.915828 -18.14657
-14.409961 -16.799389 -13.062259 -18.567257 6.826943 22.808735 20.784027 22.452955
4.067537 5.159779 4.875974 25.857853 18.350245 5.21342 18.439352 6.962322
26.47517 21.94265 25.928392 4.7878747 25.961796 6.960655 22.903326 4.7335205
-11.662904 -8.56553 -8.216697 -7.9197865 -12.543001 -11.203215 -11.413536 -8.446
-9.115976 -11.353428 -9.072041 -11.330347 -7.675395 -8.442264 -8.159261 -11.883042
-9.296211 -11.169473 -8.109979 -11.455341 -8.954725 -5.482739 -5.7594943 -5.2403107
-9.173077 -8.790233 -9.326274 -8.657777 -6.3427615 -8.658503 -6.622893 -8.565578
-9.355379 -6.2359524 -8.705852 -8.809748 -8.825408 -8.305061 -5.4817796 -9.155804
-18.038631 -13.16774 -13.080557 -13.084031 -19.166513 -17.7991 -18.106855 -13.064107
-14.13286 -17.845564 -14.080554 -17.784376 -14.499844 -13.3330145 -14.896732 -18.120428
-14.758366 -17.210697 -13.112426 -18.712479 -16.794743 -12.3530035 -12.058305 -11.978966
-17.96247 -17.152624 -17.168472 -11.793106 -13.085935 -17.260359 -12.938475 -16.890059
-13.134843 -12.228154 -13.731948 -16.896917 -13.16959 -15.992095 -12.099711 -17.689825
-15.798621 -12.571867 -12.018259 -12.139656 -17.46147 -16.635164 -16.344223 -12.108648
-12.841112 -16.831707 -12.417532 -16.301836 -13.49609 -11.288574 -13.991198 -16.54807
00000000: 6998 8a40 a9de 2c3f 15fe e73f b40f 4b3f
00000010: 63cb 9e40 45cf a240 08cb 9d40 4a8b ff3e
00000020: 347f 5640 89d1 9d40 5cad 4140 c2cf 8740
00000030: 621e 4ebe 12f2 873f cd27 c93e de12 9840
00000040: 5ba7 7abd 51c2 9040 bc3d 783f a63f 9e40
00000050: c944 56c0 8c63 02c0 04a4 e9bf 5292 e3bf
00000060: 5604 5cc0 b4bd 55c0 4d96 4ec0 3432 46c0
00000070: 92d6 f6bf 3349 52c0 52a6 ffbf 7074 49c0
00000080: 89b9 67c0 7b5e e5bf f27a 63c0 0673 51c0
00000090: 5e85 79c0 cd27 3dc0 7efc fdbf 73a4 5fc0
000000a0: 2d11 7fc1 2c0a 44c1 e1d6 3ec1 eaa9 40c1
000000b0: a5dc 89c1 77f3 81c1 2ab0 81c1 973c 3ac1
000000c0: 50aa 4fc1 12c8 80c1 ddf5 49c1 e89d 7bc1
000000d0: 0b04 34c1 02c9 3bc1 7f97 3fc1 2ae2 7ac1
000000e0: cd75 40c1 429f 6fc1 6738 3dc1 e26e 84c1
000000f0: 97c5 88c1 6b7c 46c1 deac 40c1 b693 3fc1
00000100: a64f 92c1 5ea6 8ac1 aef2 8bc1 ba08 37c1
00000110: 4af0 52c1 1021 89c1 f1ed 53c1 1794 85c1
00000120: cffb 3bc1 9cb8 48c1 6e07 4fc1 a326 89c1
00000130: eadc 4bc1 8c97 82c1 62ec 45c1 e172 8dc1
00000140: 98d8 be41 85e0 bfc0 bc27 65c0 9734 a5c0
00000150: 8e07 c641 3ca6 be41 6665 c441 078b 2ac0
00000160: 05a5 3240 feb4 c741 1dc5 f63f 94ad b941
00000170: bc89 29c0 866b 7bc0 3fd7 debf 401f c341
00000180: 5293 50c0 2e9e be41 3e5f b5c0 444c c441
00000190: a845 49c1 c289 29c1 d497 12c1 dbd9 22c1
000001a0: 8ce2 54c1 aeba 50c1 9813 52c1 4eec dfc0
000001b0: 1050 1ac1 04a0 49c1 6372 18c1 ac67 40c1
000001c0: a767 92c0 18a3 15c1 d5e0 c2c0 1681 4fc1
000001d0: 214c cac0 03ba 43c1 d00a 22c1 b9ed 50c1
000001e0: 52d4 8ec1 983c 56c1 ca8e 52c1 7ebd 4dc1
000001f0: 492b 98c1 722b 8fc1 378f 91c1 f246 53c1
00000200: 2900 61c1 1c85 90c1 ebe6 5fc1 afb4 8fc1
00000210: 410d 6dc1 5fce 54c1 3ba7 6ec1 2d2c 91c1
00000220: 338f 66c1 2665 86c1 03ff 50c1 be89 94c1
00000230: 5176 da40 4a78 b641 b045 a641 a79f b341
00000240: 4329 8240 e91c a540 fb07 9c40 e2dc ce41
00000250: 4dcd 9241 56d4 a640 cb83 9341 58cb de40
00000260: 26cd d341 8c8a af41 596d cf41 4536 9940
00000270: c2b1 cf41 b0bd de40 033a b741 0079 9740
00000280: 419b 3ac1 690c 09c1 9777 03c1 e46e fdc0
00000290: 22b0 48c1 5e40 33c1 d89d 36c1 d122 07c1
000002a0: 0adb 11c1 a4a7 35c1 1427 11c1 1a49 35c1
000002b0: d69c f5c0 8313 07c1 558c 02c1 f120 3ec1
000002c0: 48bd 14c1 29b6 32c1 79c2 01c1 1449 37c1
000002d0: 8e46 0fc1 9972 afc0 c74d b8c0 a0b0 a7c0
000002e0: ecc4 12c1 cba4 0cc1 6b38 15c1 4186 0ac1
000002f0: e7f7 cac0 3a89 0ac1 bdee d3c0 9c0c 09c1
00000300: a2af 15c1 ec8c c7c0 2b4b 0bc1 baf4 0cc1
00000310: df34 0dc1 88e1 04c1 bd6a afc0 2c7e 12c1
00000320: 1e4f 90c1 10af 52c1 f649 51c1 3158 51c1
00000330: 0555 99c1 8f64 8ec1 d7da 90c1 9506 51c1
00000340: 3220 62c1 b7c3 8ec1 f349 61c1 6746 8ec1
00000350: 5cff 67c1 0754 55c1 0459 6ec1 a3f6 90c1
00000360: 4422 6cc1 82af 89c1 7fcc 51c1 28b3 95c1
00000370: a25b 86c1 e7a5 45c1 d1ee 40c1 d8a9 3fc1
00000380: 23b3 8fc1 9338 89c1 0859 89c1 90b0 3cc1
00000390: fd5f 51c1 3715 8ac1 fe03 4fc1 d71e 87c1
000003a0: 5128 52c1 85a6 43c1 0fb6 5bc1 e32c 87c1
000003b0: a4b6 52c1 9fdf 7fc1 6b98 41c1 c384 8dc1
000003c0: 27c7 7cc1 5e26 49c1 ca4a 40c1 083c 42c1
000003d0: 17b1 8bc1 d114 85c1 f8c0 82c1 06bd 41c1
000003e0: 3275 4dc1 56a7 86c1 36ae 46c1 296a 82c1
000003f0: fcef 57c1 009e 34c1 f2db 5fc1 7362 84c1

bias f4 [22]
3.8051872 -0.8410756 -8.958092 -8.859867 20.55392 -3.580749 -10.550729 12.735508
-4.2381935 -3.955577 -10.341287 -9.424879 -9.261379 -9.866449 -10.213059 -8.801059
-3.6371746 -3.5692391 -9.205654 3.6894925 -9.940531 -10.179468
00000000: 3088 7340 bb50 57bf 5854 0fc1 04c2 0dc1
00000010: 6e6e a441 fe2a 65c0 c9cf 28c1 a4c4 4b41
00000020: 489f 87c0 2c28 7dc0 e975 25c1 4ecc 16c1
00000030: 9c2e 14c1 fadc 1dc1 b168 23c1 23d1 0cc1
00000040: 78c7 68c0 6a6e 64c0 5c4a 13c1 a520 6c40
00000050: 6a0c 1fc1 1adf 22c1
