saved_models/model_year.pt (torch, 25622 bytes, 25 tensors)

weight f4 [15, 24]
000000 c7 ae 8f 3f 50 10 88 3e 7c 9c 37 40 4b 5e ce bf
       1.1225213 0.26574945 2.868926 -1.6122526
000010 47 26 f3 be 10 3e 4d be 47 07 eb bf 9f 83 27 40
       -0.4749014 -0.20043206 -1.8361596 2.6174085
000020 18 fa 35 3f 5d 58 da 3f 76 69 29 be 3c 15 01 3f
       0.7108474 1.7058216 -0.16544136 0.50423026
000030 a2 db d2 3f 48 65 41 3f 44 e9 89 bf 32 28 82 3f
       1.6473277 0.7554517 -1.0774312 1.0168517
000040 90 fd aa bf 07 01 af bb 87 d2 94 3e b8 bb d4 bf
       -1.3358631 -0.0053406986 0.2906687 -1.6619787
000050 c6 74 6b 3f e8 3e c5 bd 2a 09 e4 3f f4 9f 15 40
       0.9197506 -0.09631139 1.7815297 2.3378878
000060 0a 7e b5 3e a2 7c 6a be fc fd 2b bf 07 74 3b bf
       0.35447723 -0.22899106 -0.67184424 -0.7322392
000070 a6 67 09 3f 4b f2 4e bf de 23 3a 3f e2 f1 29 bf
       0.5367378 -0.8083846 0.7271098 -0.6638471
000080 47 28 e5 be 20 1e d6 3e bf fb bf bd a2 ad b5 bf
       -0.44757292 0.4181986 -0.09374189 -1.4193614
000090 13 6c 21 bf 91 4f d6 3e 91 43 93 be 20 4a 39 bf
       -0.63055533 0.4185758 -0.28762487 -0.7237873
0000a0 76 09 19 bf 6e ba 31 bf 1b 54 45 3f 32 a1 0c bf
       -0.5978006 -0.69425094 0.7708146 -0.54933465
0000b0 ac db c8 be 17 cc 63 bf af 77 8e 3f bc 32 47 bf
       -0.39230096 -0.8898329 1.1130275 -0.7781179
0000c0 f2 e8 24 3f ca 22 52 be ff ae 09 c0 3a 7b d1 bf
       0.64417946 -0.20521083 -2.151306 -1.6365731
0000d0 35 e6 d6 be f0 72 23 bf 8e 32 5c bf fb a2 5f bf
       -0.4197251 -0.63847256 -0.8601464 -0.87358063
0000e0 8d 51 8c 3f a1 4e ce bd 53 5d 36 c0 ba 37 6f bf
       1.0962387 -0.10073591 -2.849446 -0.93444407
0000f0 16 8e a8 bf 8f 9e 3e bf eb ea ad 3f 08 34 c0 3d
       -1.3168361 -0.7446069 1.3587316 0.09384924
000100 a0 74 29 3f a5 37 27 3e 40 6c f6 bf f9 48 42 3f
       0.6619358 0.1632982 -1.9251785 0.758926
000110 cc 35 db bf 64 91 c8 bf 5a 12 a8 be 01 88 12 c0
       -1.7125793 -1.566937 -0.328265 -2.289551
000120 84 b3 a5 be b7 b1 07 40 40 a3 53 bf af 6a c8 3d
       -0.32363522 2.1202219 -0.82670975 0.09785973
000130 2b 18 3a 3f 8d 41 6c bf 40 19 fd bf 22 e3 10 bf
       0.7269313 -0.9228752 -1.9773331 -0.5659658
000140 27 93 fa be f6 aa 2b c0 45 4d 32 c0 d6 a2 2c be
       -0.48940393 -2.6823096 -2.7859662 -0.16858992
000150 97 d9 64 bf 73 65 38 3e 24 5b 97 bf 10 db ef bf
       -0.89394516 0.1800745 -1.1824689 -1.8738728
000160 58 c3 9a bf a4 f9 9f bd e4 3e ca bf 97 14 f5 3d
       -1.2090864 -0.07811287 -1.5800443 0.11966818
000170 85 58 5b bd 2f 5e bd 3f 0e 49 83 3e 87 d5 54 bf
       -0.053551216 1.4794368 0.25641674 -0.83138317
000180 f2 00 03 40 43 ac e6 3f 57 5c 6d bf aa 12 9c bf
       2.0469327 1.802132 -0.92719024 -1.2193196
000190 84 5b 3c bf 48 63 44 bf 41 af 1c be 59 a7 bb 3e
       -0.7357714 -0.7671399 -0.15301229 0.36651114
0001a0 6b 15 09 bf 4a af 35 bf 04 4c 34 3e 37 d0 59 bf
       -0.53548306 -0.70970595 0.17607123 -0.85083336
0001b0 01 ea 12 bf 29 57 29 3e 45 37 84 3f dd 25 95 bf
       -0.5738831 0.16537155 1.0329367 -1.165218
0001c0 dc 1f 20 bd bf ed cf 3e 4b 63 d3 be d8 96 35 3f
       -0.039092883 0.40611073 -0.41286692 0.70933294
0001d0 66 1c 62 bf 1d e0 d6 bf 49 81 55 bf 5f 8d 40 bf
       -0.8832458 -1.6787144 -0.834004 -0.75215715
0001e0 3d 81 9c 3f bd 8d 1f bf d9 63 0a bf e1 3d 36 3f
       1.222694 -0.6232565 -0.54058605 0.7118817
0001f0 4c c0 3a 3e c1 62 3b 3f b5 e9 53 bd 53 a2 27 3f
       0.18237418 0.7319756 -0.051736552 0.6548206
000200 62 16 0e bf 15 58 66 bf d3 c2 0b 3f 2a 94 53 3f
       -0.55502903 -0.8997815 0.54594153 0.82647955
000210 f7 f4 34 3f a7 3e 24 bf d7 46 55 be 97 83 56 3f
       0.70686287 -0.641581 -0.20827805 0.8379454
000220 e5 47 42 bf 33 e9 87 3f 17 34 7b bf cd 7c ed be
       -0.7589095 1.0618042 -0.9812636 -0.46384278
000230 98 6a 10 3f f4 d4 36 3f fb e0 b9 be 70 86 a3 3e
       0.5641265 0.7141869 -0.3630446 0.31938505
000240 1f af ab bf 66 8e fc 3e eb 68 88 bf f7 9a 23 3f
       -1.3412818 0.4932739 -1.0657018 0.6390833
000250 27 56 71 3f d5 bc b0 bf 98 0b 8e 3f 4a bb 49 40
       0.94272083 -1.3807627 1.1097288 3.1520562
000260 b1 c9 cd bf 47 a5 ee 3f 03 11 5e 40 7e 76 1d 3f
       -1.6077176 1.8644189 3.4697883 0.6150893
000270 5b a9 0e 40 27 45 c9 3e 9c 8f 73 3f 3e 4e b4 3f
       2.2290866 0.39310572 0.95141006 1.4086378
000280 a4 64 b7 3f c0 7e 28 bf ef 70 d5 3f d4 b8 f2 3f
       1.4327588 -0.65818405 1.667509 1.8962655
000290 06 14 f3 be 76 8b 27 3f 4b 53 1b 40 3d 9c 8a bf
       -0.47476214 0.65447176 2.4269588 -1.082893
0002a0 93 fb cf 3e fb 5d 9b 3e 1a 81 1e c0 bc d8 3b c0
       0.40621623 0.3034514 -2.4766297 -2.9351034
0002b0 7b e6 87 3e 1c 4c 30 3f 6f bb de bf 4e d9 12 c0
       0.2654303 0.68866134 -1.740095 -2.2945132
0002c0 91 9a 90 3e c8 07 06 c0 c0 99 80 c0 cc 05 f2 be
       0.28242925 -2.094225 -4.0187683 -0.47270048
0002d0 3c 44 fe bf 84 0c 4c bf ee 53 35 3f 09 c3 71 be
       -1.9864573 -0.797066 0.7083119 -0.23609556
0002e0 d5 3a ab bf 88 33 b7 3f aa 5a 09 bf 9a f7 55 be
       -1.3377329 1.4312601 -0.5365397 -0.20895234
0002f0 8d 55 4a bf 49 77 91 bf 5d 1f 55 bf 1c 1d 7c be
       -0.7903679 -1.1364528 -0.8325098 -0.2462048
000300 9e 53 cf 3e b3 af cb 3b c8 44 5d be f4 2d ca bf
       0.40493482 0.0062160133 -0.21608269 -1.5795274
000310 51 fb da 3e 61 0e dc 3e 40 55 1b 3f a2 1e 7a bf
       0.42769864 0.4297972 0.60676956 -0.9770299
000320 d9 88 13 3e 03 80 0b 40 be 65 e1 3f 9c 3d 27 bf
       0.14407672 2.1796882 1.7609174 -0.65328383
000330 1f 5f 5b bf 0b 6d b8 3f d7 73 eb be f4 0c db be
       -0.8569202 1.4408277 -0.45986816 -0.4278332
000340 9f bd 0e 3f 17 5e b0 be 96 13 9e 3e 5b bf 2c bf
       0.5575809 -0.34446785 0.30874318 -0.67479485
000350 59 d2 66 bf 35 65 c0 bf 46 5a 8e 3f d6 61 2f bf
       -0.90164715 -1.5030886 1.1121299 -0.6850866
000360 2e a5 98 3f bc b2 73 3f 5c 78 ef bf c2 4a 08 bf
       1.1925409 0.951946 -1.8708606 -0.5323907
000370 43 d5 37 bf d3 fb 7e 3d ab ba d6 bf 9f 40 09 c0
       -0.71809787 0.062251877 -1.6775717 -2.1445692
000380 00 52 40 3f 4c 87 0e c0 aa a5 0a c0 95 43 c0 bf
       0.7512512 -2.2270079 -2.1663613 -1.5020624
000390 7f 6e e7 bf 86 b4 fb 3e 52 24 93 3f 6a 2e 0a 3e
       -1.8080596 0.49161166 1.1495459 0.13494268
0003a0 07 b9 f3 bf 6f 90 10 3f be d8 98 bf fc fb ca bf
       -1.9040841 0.5647039 -1.1941144 -1.585815
0003b0 e2 90 63 bf 7c 55 2f bf 01 d1 b3 3d c6 2a f3 bf
       -0.8889295 -0.68489814 0.08780099 -1.8997428
0003c0 84 93 d7 3f 1c eb 18 3f 3f a6 d0 bf ac 2a bf be
       1.6841893 0.5973375 -1.6300734 -0.37337244
0003d0 b8 bb 11 bf 10 48 88 3f 80 09 82 bf d9 db a4 bf
       -0.5692706 1.0646992 -1.0159149 -1.2879592
0003e0 36 27 62 3f f4 ac 0d c0 f1 a6 50 c0 68 1a 9e bf
       0.8834108 -2.2136812 -3.2601893 -1.2351809
0003f0 ce 11 89 bf 0f 7a 99 be c0 2f 49 3f d4 28 37 bf
       -1.0708559 -0.29975936 0.78588486 -0.71546674

bias f4 [15]
000000 23 db 17 bc f7 84 e4 bc 50 87 02 c0 8e a6 b1 bf
       -0.009268555 -0.027895434 -2.0395088 -1.3878953
000010 89 68 5d 3f 66 46 88 be d0 8c 39 bf b4 3f 73 bf
       0.86487633 -0.2661621 -0.7248049 -0.9501908
000020 49 ca bd be 99 f0 83 bf 9d 1c e3 3f e4 16 c8 bf
       -0.37068394 -1.03078 1.7743107 -1.5631986
000030 3e aa ec bd 52 98 9d 3f 4f 58 92 3f
       -0.115559086 1.231211 1.14332

weight f4 [15]
000000 15 b7 56 3e 61 05 f0 3e 56 aa 51 40 ef d1 1c 40
       0.20968278 0.46879104 3.2760215 2.4503133
000010 22 a8 07 bd 45 d0 e8 bd a6 6f bc be 0d 72 d3 3f
       -0.03311933 -0.11367849 -0.3680393 1.651918
000020 96 5b eb 3e 86 60 ba 3f a9 ff cf 3f 82 43 9b 3a
       0.45968312 1.4560707 1.6249896 0.001184568
000030 82 a8 55 be 52 91 13 3f f4 7b 2e be
       -0.20865062 0.57643616 -0.17039472

bias f4 [15]
000000 29 08 2f 3f db 9c e3 bf 65 1c c1 be b1 95 c0 3f
       0.68371826 -1.7782243 -0.37716976 1.5045682
000010 d1 c7 ac bf 24 9f ef bf 88 2e 31 3f 13 3f 0d bf
       -1.3498479 -1.8720441 0.69211626 -0.5517437
000020 28 38 fc bf 50 8f 0d bf f7 6d 1b be 2c 63 00 bf
       -1.9704638 -0.552968 -0.15178667 -0.50151324
000030 18 e4 a2 bf 56 31 af bd e1 01 ea bf
       -1.2725859 -0.08554332 -1.8281823

running_mean f4 [15]
000000 6e 6d 2c bf 48 65 bf 3e 30 cb c7 bf 2d 93 8b bf
       -0.67354476 0.3738196 -1.5608883 -1.090429
000010 12 b7 ae 3f 90 d1 fb be b0 66 80 bf 3c 21 bf be
       1.3649619 -0.4918332 -1.0031338 -0.37330043
000020 4b 3c f0 bd 9c 27 fa be ff 10 0a 40 f7 ee bd bf
       -0.1173025 -0.48858345 2.1572874 -1.4838551
000030 50 8a 2b be b6 f5 c6 3f 2c f6 03 40
       -0.16751981 1.5543735 2.0619001

running_var f4 [15]
000000 86 a5 a5 42 29 56 bd 41 ab aa 9c 42 69 58 30 42
       82.82329 23.66707 78.333336 44.086338
000010 d5 ec 2d 42 33 71 7d 41 fe 14 94 42 f2 87 b4 42
       43.48128 15.840137 74.041 90.26552
000020 6d 70 ea 41 d3 f3 a7 42 f7 80 82 42 9f e1 b3 41
       29.304895 83.97622 65.251884 22.485167
000030 2f 5c 2e 41 ff de 6e 42 e5 6b e9 42
       10.897506 59.71777 116.71073

weight f4 [15, 15]
000000 1e 40 1e bf 0b 01 ab be 2c 6a cb bf 77 69 2b c0
       -0.61816585 -0.33399233 -1.5891776 -2.678312
000010 a6 99 44 3e 7a 4c 92 3e 37 ae b3 be 57 8d 53 bf
       0.19199237 0.28573972 -0.35093853 -0.8263754
000020 15 45 5c be aa ae 0b bf 69 20 18 3e aa ee 2f be
       -0.21510728 -0.5456339 0.14856113 -0.17180887
000030 6c c1 27 3e 84 a4 27 3e 74 3d 82 3e df 47 db 3e
       0.16382378 0.16371351 0.2543751 0.4282827
000040 6e cf 56 be f1 30 84 3f 54 ba 10 40 36 9b 86 3d
       -0.20977566 1.0327436 2.2613726 0.06572573
000050 a8 f7 20 be 28 c4 cd 3f 0c 2e 89 3f 28 cf d5 bf
       -0.15719473 1.6075487 1.0717177 -1.6703844
000060 f7 21 81 3f 52 dd 1e 40 24 05 a7 be 8c 23 5a be
       1.008849 2.4822583 -0.3262111 -0.21302623
000070 6b 17 9c 3f 12 cb b5 3d 3e 0f 3f be 04 ba 13 bf
       1.2194647 0.08876623 -0.18658158 -0.5770571
000080 bf c9 6f 3f 3e 8d 2e 40 b3 74 e3 3e 62 51 9a 3e
       0.93667215 2.7273707 0.44424972 0.30140215
000090 83 b3 6b bf 5b d9 72 bd 90 42 82 be 6b f8 d9 3d
       -0.9207079 -0.059289318 -0.25441408 0.10643085
0000a0 e0 33 e7 bd 93 35 ad be 04 0d bd be d7 54 0b 3f
       -0.11289191 -0.33829936 -0.36923993 0.5442633
0000b0 9b d7 12 bc e9 2d 03 bf 7f 3a 7e 3d e1 8d 55 bf
       -0.008962537 -0.5124193 0.062067505 -0.83419615
0000c0 07 bc 9d bd e7 a7 80 bf 8b 88 3a 3e 10 2f 29 bf
       -0.07701879 -1.005124 0.1821615 -0.66087437
0000d0 18 d1 e6 be bb c1 90 bf 55 fa f3 bf 41 3c 1f 3c
       -0.450814 -1.1309122 -1.906077 0.0097189555
0000e0 9e 4e 1d bf e4 2d d7 be 25 16 71 3e 25 35 86 bf
       -0.61448085 -0.420272 0.23543604 -1.0484968
0000f0 06 55 79 3e 22 bb 06 3f f1 b3 97 3f ba 57 bc bd
       0.2434884 0.5262929 1.1851789 -0.0919642
000100 81 99 f7 3e 18 3d 76 bf 56 8f 13 bf fb 52 6a 3f
       0.48359302 -0.9618697 -0.5764059 0.9153287
000110 ee cb 82 bf 89 b6 56 3f f8 b9 aa bc f1 2a 84 3e
       -1.0218484 0.83872277 -0.02084063 0.25814012
000120 c4 b8 9d be 51 3d 69 be d8 dd a4 bd 34 f3 da 3d
       -0.30805027 -0.22777297 -0.08050126 0.106909186
000130 f5 68 21 bf de 70 e7 bf 55 3e a9 bd 00 a3 fe be
       -0.63050777 -1.8081319 -0.08263842 -0.49733734
000140 4e c0 e7 3e d5 17 4a 3d 3c 0b b8 bf 09 c2 95 bf
       0.45263904 0.049339134 -1.4378428 -1.169984
000150 d4 99 d0 bf 49 9d 83 be 4f 59 c3 be 16 23 1a be
       -1.6296945 -0.25705937 -0.38154075 -0.15052447
000160 a0 52 7d bd 65 8d 8a bf 58 d3 9c 3d 19 c4 e8 3e
       -0.061846375 -1.08244 0.07657498 0.4546211
000170 67 ed 41 bf 86 22 d9 3e 48 39 44 bf da 93 52 bf
       -0.7575287 0.42409152 -0.76649904 -0.82256854
000180 97 77 11 bf f2 be 17 3e c1 f2 8e 3c 99 93 a3 bf
       -0.56823105 0.14818934 0.017449738 -1.2779418
000190 f6 4c 78 3f 28 1c ac bf 4b 7e 33 bf d1 10 6c 3e
       0.96992433 -1.3446093 -0.7011458 0.2305329
0001a0 f3 a0 00 3e aa 80 6e 3e 52 2d 4d bd 35 fd fd bf
       0.12561397 0.23291269 -0.05009205 -1.9842898
0001b0 5e b3 13 c0 52 43 48 3d c3 fe 58 bf 06 9c 2c be
       -2.3078227 0.048892327 -0.84763736 -0.16856393
0001c0 c6 73 65 bf 88 d2 49 be 09 94 03 bf 88 48 7e 3e
       -0.8962978 -0.19709218 -0.5139776 0.24832356
0001d0 b3 0a bc be 10 2f 0c bf 24 c3 be 3e 4c ee 01 bf
       -0.36726913 -0.5475931 0.37258255 -0.5075424
0001e0 c6 94 7b be 65 6b 29 bf 24 97 67 bf 2f bb a7 3e
       -0.24568471 -0.66179496 -0.90465 0.32759997
0001f0 e9 fb 37 3f 79 05 f3 be 97 9f d1 bd 93 5f f5 bf
       0.7186876 -0.47465113 -0.102355175 -1.9169792
000200 1c 28 f1 bf 0c 81 75 bf 3e aa 95 3d 81 c1 af bf
       -1.8840365 -0.95900035 0.07307862 -1.3730928
000210 51 2f 21 3e dd 25 03 3f 1b e4 44 c0 c5 54 55 bf
       0.15740706 0.5122965 -3.0764225 -0.83332473
000220 2b 46 69 3d c1 6c 02 40 3f 5a de 3f 68 4c 3e bf
       0.056951683 2.0378878 1.7371291 -0.74335337
000230 1b e3 d7 3e de 88 db 3f 2c 2b 22 40 f6 e6 af bf
       0.42165455 1.7151144 2.533885 -1.3742359
000240 02 22 31 3e 85 b1 18 40 5f d0 fd be b6 e4 5e be
       0.17298129 2.385835 -0.49573037 -0.21766934
000250 05 da e4 3e c8 a4 74 3f a0 75 b9 be aa 18 fb 3e
       0.44697586 0.95563936 -0.36222553 0.49042255
000260 4e 20 7e 3f 49 91 3b 40 a4 46 de bd 30 6c b7 3e
       0.99268043 2.9307425 -0.108533174 0.35824728
000270 a7 7d 09 bf a7 8a 27 3f a0 93 84 bf 11 98 c2 3e
       -0.53707355 0.6544594 -1.0357552 0.38006642
000280 d4 d4 ad 3e 32 d8 8b bf 86 a6 61 3d 9a 84 58 3f
       0.33951437 -1.0925353 0.05509045 0.84577334
000290 ea fa 8d be af 98 c9 3e 28 e7 99 3e c0 1d b3 bf
       -0.27730495 0.393743 0.3005917 -1.3993454
0002a0 ec 31 08 c0 57 97 1c bf 3b ab 44 be 68 5a 53 3f
       -2.128047 -0.61168426 -0.19205944 0.82559824
0002b0 bb a5 f0 be aa 30 8c bc a4 c4 74 bf d1 9a 64 bf
       -0.47001442 -0.017113049 -0.9561255 -0.8929873
0002c0 74 08 d4 be 60 ea 88 bd ac 88 43 bf 72 89 d9 be
       -0.414127 -0.066853285 -0.7638042 -0.42487675
0002d0 c9 02 ee 3c 84 91 ee be 68 93 30 3f 9f 69 04 40
       0.029054062 -0.46595395 0.68974924 2.0689466
0002e0 fd f7 83 be e7 36 40 3f ad 48 40 be 4b fb 37 bf
       -0.25775138 0.75083774 -0.18777724 -0.7186782
0002f0 04 1d 81 bf 8d a0 50 3f 1b 01 9e 3d d1 1a 50 3e
       -1.008698 0.8149498 0.077150546 0.2032273
000300 e0 f8 4c bf a2 9e 89 3e db b3 6c bf 46 a5 e1 3d
       -0.80067253 0.2687884 -0.9246194 0.110178515
000310 24 4d 21 bf 13 75 7d 3f c8 47 0d 40 eb 0d a4 bf
       -0.6300833 0.99006766 2.2075062 -1.2816747
000320 37 44 ad 3d f8 ac aa 3f 89 1f 85 3f 91 39 b3 bf
       0.084602766 1.3334036 1.0400249 -1.4001943
000330 3d 3c 58 3f 39 bd 1e 40 81 7f 2d bf 24 8b 3d bf
       0.84466916 2.4802992 -0.6777268 -0.74040437
000340 45 a3 ab 3f 48 a2 4c 3e d2 fb 41 3f bd 79 15 3f
       1.3409201 0.1998378 0.7577487 0.5838888
000350 2c 89 97 bf 1d ae 2c bf 9b b9 ef 3e b9 1f f6 bd
       -1.1838737 -0.67453176 0.46821293 -0.12017769
000360 c9 02 0f 3e 5a fa aa bf 26 9d 84 bf 63 c7 de bf
       0.13965906 -1.3357651 -1.0360458 -1.7404598
000370 cf 36 63 be b5 66 ca be 94 0a f8 3d 6e 92 31 be
       -0.22188877 -0.39531484 0.121113926 -0.17341015
000380 6e 51 c6 bf
       -1.54936

bias f4 [15]
000000 8f 62 c5 3c 69 03 47 bf 9d 8f 86 3e c6 e1 28 bf
       0.024094848 -0.7773958 0.26281443 -0.659695
000010 e6 1d dd 3e b4 4e d1 be 2b b8 d1 be f9 b9 d1 bf
       0.43186873 -0.40880358 -0.40960822 -1.6384879
000020 eb d1 91 3e 2a 02 6a bf e1 89 16 bf 99 85 8b bf
       0.28480467 -0.9140955 -0.58804137 -1.0900146
000030 b0 3d 56 3f 57 88 6d bf f5 03 4e bf
       0.8368788 -0.92786163 -0.8047479

weight f4 [15]
000000 91 de e3 3f fc 3a cb 3f e5 a3 a3 3f 2d 3b 58 bb
       1.7802297 1.5877376 1.2784392 -0.0032994256
000010 39 83 95 be b9 f3 9e 3e f8 5c bf 3e 24 3e ef 3f
       -0.29201677 0.3104532 0.37375617 1.8690839
000020 9c 26 14 3f 0d e5 a1 3f e8 44 55 3f da 77 6a 3f
       0.57871413 1.2648026 0.8330827 0.9158913
000030 03 8e d2 3e 0d c4 c8 3f 38 15 03 3f
       0.4112397 1.568483 0.5120425

bias f4 [15]
000000 fb 8f c7 3f 5c 75 b7 bf 99 07 4e 3f f1 ec cd bf
       1.5590814 -1.433269 0.80480343 -1.6087934
000010 ab c1 5b bf ff 14 b6 bf 85 e2 c6 bf ff 02 da 3f
       -0.8584239 -1.4225157 -1.5537878 1.7032164
000020 48 e5 a3 bf 33 27 0f c0 27 69 a0 3f 39 14 3e 3f
       -1.2804346 -2.2367675 1.253209 0.7424961
000030 28 53 ef bf d9 bb b4 bf ad b3 e2 bf
       -1.8697252 -1.4119827 -1.7711083

running_mean f4 [15]
000000 f5 00 fb c0 78 ce 04 41 16 7a b7 40 76 68 4a c0
       -7.843867 8.300407 5.733653 -3.1626258
000010 48 ad e6 3f 63 72 60 c0 a7 32 ef be 94 6b 06 c1
       1.8021631 -3.5069816 -0.46718332 -8.401264
000020 9f ec 96 bf 4e a4 f2 40 5e c0 c3 40 c8 4f da c0
       -1.1790961 7.5825567 6.1172323 -6.822239
000030 4e 14 ae 40 83 6e f1 40 8a ac 76 c0
       5.4399786 7.54474 -3.854281

running_var f4 [15]
000000 8a e8 34 42 6f 09 88 42 1b e6 f2 41 75 5f c5 40
       45.22709 68.018425 30.362356 6.1679025
000010 7d 87 c3 40 d5 95 a7 41 d6 0f b0 3f 5f ea 2a 42
       6.110289 20.94816 1.3754833 42.728878
000020 84 30 dc 40 f5 56 a6 42 a3 1b 39 42 10 50 21 42
       6.8809223 83.16984 46.27699 40.328186
000030 75 0e 92 41 5f 74 80 42 66 a9 96 41
       18.25706 64.22729 18.832714

weight f4 [15, 15]
000000 2f 36 97 bf 80 67 5f be b8 6f 98 be 3e 0d bf bd
       -1.181341 -0.21816826 -0.29772735 -0.093286976
000010 18 b7 9a be bf 79 21 3d 91 27 97 be 13 4c 93 bf
       -0.30217814 0.039422747 -0.29522374 -1.1507591
000020 9b 95 65 3f c5 28 f7 3e 89 2b bc 3e 24 6a af bf
       0.89681405 0.48273292 0.36751965 -1.3704267
000030 9f ea df 3e 40 07 ad be e0 8e 57 3e af 5a 16 40
       0.4373369 -0.33794594 0.21050596 2.349285
000040 0d 79 a2 3a 67 7a af 3f 42 79 ed be 30 44 51 be
       0.0012395695 1.3709229 -0.46381575 -0.20436168
000050 39 da 83 bb c3 19 7b be d1 23 ed 3f 76 47 2d 3e
       -0.004023817 -0.24521546 1.8526555 0.16921791
000060 8a a2 4e bf 82 41 37 c0 e2 f8 33 3f 56 e8 d0 be
       -0.80716765 -2.8633733 0.7030164 -0.40802258
000070 8d fe b9 be 93 0f 90 3d 95 59 82 c0 51 67 8e 3e
       -0.3632702 0.070342205 -4.0734353 0.278132
000080 33 3e 95 bf 47 33 28 3e d2 05 da bd a0 a5 f7 bc
       -1.1659607 0.16425811 -0.106456414 -0.030230343
000090 84 2c 07 be a8 60 48 bf 42 af 34 be b6 64 47 3f
       -0.13200575 -0.78272486 -0.1764498 0.7788805
0000a0 28 0c a6 3f 9e fa 01 c0 1b c6 7d be a2 d4 fb 3e
       1.297246 -2.0309215 -0.24782602 0.49185663
0000b0 3d 6e 0a bf 72 a3 05 40 66 6a 09 bd cc 6f dc 3f
       -0.5407446 2.088101 -0.033548735 1.7221618
0000c0 51 5f ae be 26 cd 79 be 84 22 d5 3f 19 8f 7a 3e
       -0.34057096 -0.24394664 1.6651158 0.2446865
0000d0 bd e0 cb 3f fd a9 64 3e 88 a3 21 3f 41 7b 15 c0
       1.592796 0.2233047 0.63140154 -2.3356478
0000e0 e8 71 3c 3f 52 4b d5 3e 3a 2c 07 3e a2 43 f7 be
       0.7361131 0.41659027 0.13200465 -0.48293787
0000f0 6b c7 d7 be bb 95 91 bf b1 23 28 c0 78 42 65 bb
       -0.4214433 -1.1373819 -2.6271784 -0.0034982245
000100 7c 74 c9 be 85 e9 ae 3e 3b 92 bf 3e 75 44 19 be
       -0.39346683 0.34162536 0.37416252 -0.1496752
000110 44 42 83 be 8d f5 b5 bf ca 25 05 bf ac 31 0f be
       -0.25636494 -1.4215561 -0.52010787 -0.13983792
000120 28 b7 87 be 4b fa e0 bf ab 29 4a 3f 07 3c 19 c0
       -0.26506925 -1.7576383 0.7896983 -2.3942888
000130 25 07 57 be 31 dc 58 3e 48 d0 f0 3e 21 ff 35 bf
       -0.20998819 0.21177746 0.47033906 -0.7109242
000140 74 f4 28 3e 84 96 2c 3f cc c3 72 c0 0e 84 85 bf
       0.16499501 0.6741717 -3.7932005 -1.0430925
000150 9b 29 bc 3f 7c 14 2a 40 98 5e 33 c0 84 90 9b bf
       1.4700197 2.6575003 -2.8026485 -1.2153478
000160 c7 84 0b bd f3 43 95 3d 88 62 00 c0 ba 54 8e 3e
       -0.034062173 0.07288351 -2.0060139 0.27799016
000170 0b 6f c2 be 6d 7f 67 be 1d 2f a6 3d 3b a2 0e 3b
       -0.37975344 -0.22607203 0.08114455 0.0021764177
000180 10 0f 2c bf 08 b5 e8 bf 1e 8e 07 40 f4 45 6c bd
       -0.67210484 -1.8180246 2.1180491 -0.0576839
000190 27 f5 87 3d df c9 8e bf b1 06 23 3f de b8 2b 3f
       0.06638556 -1.1155356 0.63682085 0.6707896
0001a0 a5 e6 6e be 2b 19 25 3e f8 ae d4 c0 dd ae 04 3e
       -0.23330171 0.16122882 -6.6463585 0.1295733
0001b0 36 a1 31 be 33 ae f0 be 22 7d d1 3e 00 5d dd bd
       -0.17346653 -0.47007903 0.4091578 -0.10808754
0001c0 95 33 bc 3e bb 6c a5 bd 4b e8 8f c0 76 06 4f bf
       0.36758104 -0.08077379 -4.497106 -0.80869234
0001d0 41 66 78 3e c6 86 8b bd 2d 56 c1 c0 a7 52 15 3f
       0.24257757 -0.06812815 -6.0417695 0.5832924
0001e0 5d d9 22 c0 8c 95 98 3c 30 14 76 bf 85 67 8b be
       -2.5445168 0.018625997 -0.96124554 -0.27227417
0001f0 0a a5 c4 be cb 65 bc 3e 95 53 9e bc e8 b8 c4 bf
       -0.38407165 0.36796412 -0.019326964 -1.5368929
000200 6e 64 81 be bd a5 4e 3e 12 20 c4 3f b8 82 3e c0
       -0.25271934 0.20180412 1.5322287 -2.9767284
000210 1d 73 52 3d 4a f2 a3 be 3f 28 5f bf 7d 81 0f c0
       0.05137931 -0.3202079 -0.87170786 -2.2422783
000220 32 85 49 3e cb 20 8b 3e f8 11 b2 ba 57 48 82 bf
       0.19679716 0.27173457 -0.0013585677 -1.0178326
000230 6b 8b 29 bf 31 69 8b 3c 42 40 12 c0 02 f4 d1 be
       -0.6622836 0.017017933 -2.285172 -0.41006476
000240 93 71 ae 3c 5d 32 bf bc b7 24 bd bf 28 b5 43 bf
       0.02129439 -0.023339445 -1.477683 -0.764483
000250 38 32 ff 3e 64 9f ea be b0 f0 07 bf b8 00 5b bf
       0.49843 -0.4582473 -0.53101635 -0.8554797
000260 26 08 bc bf 70 e7 a9 3e 83 51 b0 3c 7f e3 c7 bd
       -1.4689987 0.33184385 0.021523243 -0.09760188
000270 1d 25 d5 be 82 46 db be 82 12 56 be 68 65 e4 bf
       -0.41629878 -0.4282723 -0.20905498 -1.7843447
000280 dd c1 1e be 36 81 53 bf a2 ec dd be 68 1b ce bf
       -0.1550364 -0.82619035 -0.433446 -1.6102114
000290 0a 5f bd be dc 53 df bf ce 01 8c bc c3 7b f5 be
       -0.36986572 -1.7447467 -0.017090704 -0.47945985
0002a0 f7 4d 24 bc e9 06 17 bf 24 41 a6 bf db 39 b9 be
       -0.010028354 -0.5899492 -1.2988629 -0.36176953
0002b0 8f b7 76 c0 d5 1c 4e bf a9 e9 9f 3d 73 0f 60 3e
       -3.8549535 -0.80512744 0.07808239 0.21880893
0002c0 56 1f 65 bf ec 7a f8 3e f4 f1 58 3e ea ac b1 be
       -0.8950094 0.48531282 0.21186048 -0.34702235
0002d0 70 d7 f1 3e 18 c6 94 c0 a2 99 52 3d 24 64 be be
       0.47234678 -4.6491814 0.051416047 -0.37185776
0002e0 ad 92 66 bf 18 9b b0 3e f3 8a e3 3e b9 43 12 3f
       -0.9006756 0.34493327 0.44441947 0.57134587
0002f0 b0 d2 a2 be 09 2b 44 c0 7b 2d 90 bf d5 02 d3 bd
       -0.31801367 -3.0651267 -1.126388 -0.103032745
000300 b8 e7 5f 3e 74 3b 9d c0 64 25 2e 3f 17 bd dc bf
       0.21865737 -4.9135075 0.68025804 -1.7245206
000310 4f 2e 51 3e cc 52 22 be bc 96 39 3e 67 bf b4 be
       0.20427822 -0.15851897 0.18123907 -0.35302278
000320 f8 3f 23 bf f6 bc 93 be 7c 98 a0 c0 73 a8 a5 3e
       -0.63769484 -0.28855103 -5.018614 0.3235508
000330 e4 26 80 bd 3f 9a a9 3e fa 6b 50 bf e5 18 95 be
       -0.06257418 0.33125493 -0.8141476 -0.29120556
000340 ce 2f 24 3d dd 61 6d be 75 7b bc 3c 5e fa 52 40
       0.040084653 -0.23181863 0.023008088 3.2965312
000350 7c 26 38 3e b1 7e 06 3f 02 5f a6 3e d0 30 77 3e
       0.1798343 0.52537066 0.3249436 0.24139714
000360 e8 05 cf 3e e2 6d 2a c0 71 4b d8 be 71 6d 0e 40
       0.40434194 -2.6629567 -0.42245057 2.2254298
000370 1d 43 94 3e c2 fd a2 3e 32 ff a8 ba d1 ae 4f 40
       0.28957453 0.31834227 -0.0012893437 3.245045
000380 e1 92 de 3e
       0.43471435

bias f4 [15]
000000 b8 03 47 bf d2 31 e0 bf 6d 26 03 be 50 ad 60 3f
       -0.7774005 -1.7515204 -0.12807627 0.87764454
000010 d1 03 57 3e 31 8e 11 c0 b2 31 af 3e 47 25 0d c0
       0.2099755 -2.2743037 0.34217602 -2.2054002
000020 31 88 95 3f 9f 25 1d 3f 5f 72 e9 3f 9c 2a fa be
       1.1682187 0.6138553 1.8238028 -0.48860633
000030 f8 79 c4 3f 83 a4 b1 be 14 37 bb 3f
       1.5349722 -0.34695825 1.4626184

weight f4 [15]
000000 c6 6e 24 3e 2e 63 cd 3f 6c 56 bb 3e e1 df c2 3f
       0.16057882 1.6045892 0.36589372 1.5224572
000010 cc 69 2e 3f 4e 70 d8 be ba 34 c4 be 8e 03 4b 40
       0.68130183 -0.42273182 -0.38321477 3.172092
000020 7e 7b c1 3e d9 b0 0f bf 7b cb 68 3f bd e4 14 3f
       0.3778953 -0.56129223 0.90935487 0.58161527
000030 0b 26 71 40 a5 07 79 3f 17 7b 97 3e
       3.767947 0.9727729 0.29586098

bias f4 [15]
000000 1c c2 04 c0 77 10 ef bf 69 12 f0 3f 0f 4e ec bf
       -2.0743475 -1.86769 1.8755618 -1.8461322
000010 38 ca 64 bf 98 63 99 3f be 66 da bf ef 79 0e 3f
       -0.8937106 1.1983519 -1.7062604 0.55654806
000020 58 bc 8e 3f bb a8 9f bf ab 84 8a bf 51 85 04 c0
       1.1151228 -1.2473367 -1.0821737 -2.070637
000030 27 7f c4 3e 6f cf 4a c0 c9 b2 85 3f
       0.3837826 -3.1689107 1.0445186

running_mean f4 [15]
000000 22 3c cb c0 84 c3 8c 40 08 e9 22 c1 f5 ea e8 40
       -6.3510904 4.3988667 -10.181892 7.2786813
000010 69 8a 9e c0 5d 6a 50 c1 fa 6c fe c0 ee 03 a6 c0
       -4.954396 -13.025968 -7.950803 -5.1879797
000020 56 ba 03 c1 d1 51 0e c1 d2 35 43 c0 2d 36 43 c1
       -8.232992 -8.894975 -3.05016 -12.2007265
000030 e0 b0 db be ff a4 5c c1 5c c9 93 bf
       -0.42908382 -13.790282 -1.1545825

running_var f4 [15]
000000 80 ef 63 41 df 87 46 42 51 ff 70 42 0c 15 e1 41
       14.245972 49.632687 60.249332 28.135277
000010 89 56 bb 41 06 17 17 43 e8 ce 03 42 85 b7 f5 42
       23.417253 151.08994 32.952057 122.85844
000020 3a 1f 57 42 71 19 5b 42 99 ff fd 40 ee d1 71 42
       53.780495 54.774845 7.937451 60.45501
000030 3c c5 a3 42 19 71 bb 42 a1 9d 77 42
       81.88522 93.720894 61.903934

weight f4 [15, 15]
000000 fb db 46 3e c0 8c 87 c0 c6 c7 47 3f 72 37 85 c0
       0.19419853 -4.2359314 0.78039205 -4.163018
000010 1f 37 8e 3f bd 49 be bf c3 86 1a bf 7e 85 a9 be
       1.1110572 -1.4866253 -0.6036188 -0.3310966
000020 bf ef 7a 3f 20 65 63 bf 94 d1 2d 3f 38 5d b3 3e
       0.98022074 -0.8882618 0.67897916 0.35032058
000030 34 4c c0 bf 22 bc 30 be 74 53 7c 3e 39 b6 d2 bb
       -1.5023255 -0.17259267 0.2464121 -0.006430414
000040 ba d0 cc 3e 54 5d c8 3d 9c fb 4f 3f 2f 71 ed 3e
       0.40002996 0.09783426 0.812433 0.46375415
000050 f2 9e 01 3f a9 30 20 be 05 96 7b 40 b4 57 d4 bd
       0.50633156 -0.15643562 3.9310315 -0.103682905
000060 e5 fe 66 3d 74 61 6b 3f ea f3 71 bf 53 3e 83 3f
       0.05639543 0.91945577 -0.9451281 1.0253395
000070 68 15 52 c0 3e 67 74 bf 1b 99 c6 3d 79 08 8c c0
       -3.2825565 -0.95470035 0.09697171 -4.3760343
000080 ab c5 a6 be 1e bd 85 c0 9a 09 95 3f 17 0d eb 3e
       -0.32572684 -4.1793356 1.1643555 0.45908424
000090 31 32 c0 3f 50 81 ed 3e 6a 1b db 3e fc 65 3b 3f
       1.5015317 0.4638772 0.42794353 0.7320249
0000a0 a0 e7 02 40 7f fc 85 3e a9 d8 a4 bf e1 e5 30 3e
       2.0453873 0.26169202 -1.287862 0.17275192
0000b0 ff 07 45 bf 1a 7d 54 bf 14 e1 af c0 9c 05 51 3f
       -0.76965326 -0.8300339 -5.4962254 0.81649184
0000c0 7f 1a 5e c0 62 dd 44 3f 87 12 df be 3e d3 df be
       -3.4703672 0.76900303 -0.43568823 -0.43715852
0000d0 57 ee f3 be 95 13 66 3f 20 89 c2 be 69 6e a5 3f
       -0.47642776 0.8987363 -0.37995243 1.292432
0000e0 fe 73 60 be 52 5e 99 bf 08 e9 6e 3c 7d d5 9d be
       -0.21919248 -1.1981909 0.014581926 -0.3082694
0000f0 dd 64 2d 3e ea 0a 65 bc 7d 5c 54 3d 3c de 78 3f
       0.16933008 -0.013979653 0.051846016 0.972141
000100 5d 27 ac 3e ae 70 ce 3e fe 41 55 be dc b3 69 40
       0.33623782 0.40320343 -0.20825955 3.6516027
000110 45 47 44 3d bd 35 17 be 14 15 34 3f 3c 3f 53 bf
       0.04791953 -0.14766593 0.7034466 -0.82518363
000120 e8 0f 8e 3f 01 4b 54 c0 d1 31 99 bf 2b 03 66 c0
       1.1098604 -3.3170779 -1.1968328 -3.5939434
000130 2d 96 7e bd a5 3d 4a be cf 98 fe 3e be 52 b8 be
       -0.062154938 -0.19750078 0.4972596 -0.36000627
000140 90 33 89 3e ce ca 9f 3e 23 f6 10 40 e8 2c 65 3c
       0.26797152 0.31209415 2.265023 0.013987757
000150 f4 5a b6 3e e8 1b 12 bf 84 7e d7 be 69 f0 b6 3f
       0.35616267 -0.5707383 -0.4208871 1.4292117
000160 9a 1e 92 bf 53 c3 3d bf 7c d4 e3 3e 43 f5 8f c0
       -1.1415589 -0.74126166 0.4449805 -4.498689
000170 b7 70 cc 3e 4c 00 7d c0 26 ad bf 3f 45 d7 7b bf
       0.39929745 -3.9531431 1.4974716 -0.9837535
000180 26 62 97 3e 7b 1f 56 be 91 c2 a1 3f ab f2 92 3e
       0.2956707 -0.20910446 1.2637502 0.28700766
000190 26 04 a2 3f a9 ad a9 3e 44 67 ae bf 4c c9 97 bc
       1.2657516 0.33140305 -1.3625264 -0.018528603
0001a0 2a 17 79 be f2 2c 1f be 8e b3 95 3f 98 19 cf 3d
       -0.24325243 -0.15544489 1.1695421 0.101123035
0001b0 ec 7a a5 3e 25 c9 80 3e b9 8f 73 be f9 1b e1 be
       0.32320344 0.2515346 -0.23785295 -0.43966654
0001c0 a5 70 9f 40 1b 8f 16 3e 4b f4 6f bd a1 f4 22 3e
       4.9825006 0.14703028 -0.058582585 0.15913631
0001d0 37 55 d6 bf c2 65 51 3f 9d 0f 82 c0 76 1c a4 bf
       -1.6744756 0.81795895 -4.064406 -1.2821186
0001e0 35 89 c6 3d f9 c7 60 3d 25 89 03 3d 59 13 58 3f
       0.09694139 0.05487821 0.032113213 0.8440452
0001f0 5a 61 98 3e 2a 6d 2f 3f 8d ef f6 bd b5 e3 47 40
       0.29761773 0.68525946 -0.120574094 3.1232731
000200 e4 80 62 bd e5 1f de 3d 3a 53 27 3f 74 cd 7f bf
       -0.0552987 0.10845927 0.6536137 -0.9992287
000210 9e 74 bc 3f b1 48 6c c0 90 5e 98 bf 9f 57 0e be
       1.4723089 -3.6919367 -1.1903858 -0.13900612
000220 13 ce 66 c0 e5 aa 9f 3f 21 fb 67 c0 a3 89 54 be
       -3.6063278 1.2474028 -3.6247027 -0.20755629
000230 1c 4f a1 bf 35 49 36 be a3 dc ff be 8a 7c 1f 3f
       -1.2602267 -0.17801364 -0.4997302 0.62299407
000240 8a 60 20 3e 18 8a 3d 3e 42 fa f0 ba ad 80 9d bf
       0.15661827 0.1850971 -0.001838513 -1.2304894
000250 95 97 18 bd 36 c1 28 3f 19 af 16 bd 05 d0 a0 c0
       -0.037253935 0.65919816 -0.03678808 -5.025393
000260 f7 c6 d1 3f cb 0b 6d c0 86 d7 12 3f 83 1a 9e bf
       1.6388844 -3.7038448 0.5736011 -1.2351841
000270 f8 7b 1d bf 3a 81 64 bf 70 f1 32 3f 26 07 d1 bf
       -0.61517286 -0.89259684 0.69899654 -1.6330307
000280 8b 30 a8 3f 7f 68 a6 bc 58 fa a1 bf 0b 43 4f be
       1.3139814 -0.0203135 -1.2654524 -0.20240419
000290 99 21 b4 3d af 56 67 be 73 f1 30 3f 88 05 a5 be
       0.08795471 -0.22591661 0.6911842 -0.32230783
0002a0 d3 89 53 3e 16 9b a2 3e 27 2a 67 be 0e 45 ad be
       0.20658045 0.31758946 -0.22574674 -0.33841747
0002b0 3f 1d 62 40 58 15 6a 3e ce eb 50 bf 3a fc e1 3e
       3.533035 0.22859704 -0.8160981 0.44137746
0002c0 42 6e ad bf f7 2c 96 3f fd 08 82 c0 11 b6 6e bf
       -1.3549273 1.1732472 -4.063597 -0.9324656
0002d0 ca 94 ce bd 98 ea 65 3f 61 dc 4c be 61 db 87 3c
       -0.10086973 0.89811087 -0.20005943 0.0165841
0002e0 32 dd dd 3e c2 ee 91 bc f7 34 d4 3e c1 93 67 40
       0.4333282 -0.017814044 0.4144666 3.6183932
0002f0 bd d4 05 3e c8 b2 a6 3d c7 52 1c 3e 49 02 81 bf
       0.13069434 0.081395686 0.15265952 -1.0078822
000300 32 97 31 3f 7c 5e 84 c0 eb 24 65 bf a3 79 88 be
       0.6937133 -4.1365337 -0.8950946 -0.266553
000310 e6 07 9e c0 56 3b 14 3f 03 03 73 c0 13 ba 31 3f
       -4.938464 0.5790304 -3.7970588 0.6942455
000320 f0 b3 61 bf 5f fc ae be 12 a9 fb be d8 a3 85 3f
       -0.8816519 -0.3417692 -0.49152428 1.0440626
000330 49 35 b6 bf 13 ba 4b 3f e1 50 f5 3d 55 a0 96 bf
       -1.4235011 0.795808 0.11978317 -1.176768
000340 28 27 e2 bc 7f 88 d4 bc 40 59 81 3d cd 2a 23 3f
       -0.027606562 -0.025943993 0.06315851 0.63737184
000350 aa f7 0d bf 9a 08 f0 3e 62 7a 31 3e b9 a7 8d 3f
       -0.5545603 0.46881562 0.17331842 1.106681
000360 31 42 82 be 38 7d fa 3f 5e 7a 11 3b 12 9c 19 bf
       -0.25441125 1.9569464 0.002219818 -0.6000377
000370 44 7d ff 3e 0e b0 a0 bf 4d 63 46 40 89 c2 89 c0
       0.49900258 -1.2553728 3.0998108 -4.304997
000380 fe 31 38 bf
       -0.7195128

bias f4 [15]
000000 7f d6 41 bf 3c 31 0d 3f 9e 14 0a 3f 14 14 e3 be
       -0.7571792 0.5515325 0.5393771 -0.44351256
000010 a7 54 de 3f ef 0a 98 bf a7 c2 75 3f a9 7b aa 3e
       1.7369584 -1.1878337 0.9600014 0.3329747
000020 68 d6 d7 bf 0f 31 a4 bf 9f 98 c6 bf 6c 15 b8 bf
       -1.6862307 -1.2827471 -1.5515326 -1.4381537
000030 6f f7 d4 3f 29 9a 03 bf 13 c0 ad bf
       1.6638011 -0.51407105 -1.3574241

weight f4 [15]
000000 22 cb 2e 41 4e 96 33 41 78 29 2b 41 c9 fa 2f 41
       10.924593 11.2241955 10.697624 10.998727
000010 dc 1b 34 41 43 1b 37 41 32 81 2c 41 ff 8d 33 41
       11.256802 11.444156 10.781542 11.222167
000020 32 c5 33 41 9d 90 38 41 37 77 2e 41 b7 06 33 41
       11.235643 11.535306 10.904105 11.189139
000030 2b 43 33 41 4e f1 2e 41 76 eb 34 41
       11.203898 10.933912 11.307486

bias f4 [15]
000000 65 c1 25 41 2a 1b 30 41 cb 8b 22 41 f5 29 27 41
       10.359715 11.006632 10.159129 10.447743
000010 ac 50 30 41 a2 c1 2e 41 b5 89 23 41 7a 21 30 41
       11.019695 10.922274 10.22112 11.008173
000020 87 f2 2f 41 46 93 2f 41 d6 cd 25 41 1a bb 2f 41
       10.996711 10.973455 10.362753 10.983179
000030 87 d2 2f 41 97 2e 26 41 91 f9 2f 41
       10.988898 10.386374 10.998429

running_mean f4 [15]
000000 f6 9f 27 c0 71 a1 e4 40 7a 59 ac bf 6b 94 b6 bf
       -2.6191382 7.144707 -1.3464806 -1.4264044
000010 d0 8c f8 40 52 a1 4b 40 54 0c 57 bf 01 54 e4 40
       7.767189 3.1817212 -0.84003186 7.1352544
000020 57 7d 8a 40 54 11 e2 bf 98 08 1b c0 4b 73 62 40
       4.3278003 -1.7661538 -2.4223995 3.538287
000030 40 45 cf 40 58 4e 00 c0 f4 ff aa 40
       6.4772034 -2.0047817 5.3437443

running_var f4 [15]
000000 72 d3 2b 41 6c 17 81 41 b6 ac 8e 3f a8 c0 cc 40
       10.739122 16.136436 1.1146457 6.3985176
000010 2d 3b 71 41 5b 4f 1e 41 39 22 ed 40 35 68 90 41
       15.076947 9.894374 7.4104276 18.050882
000020 e9 59 80 41 7e 3b 1c 41 06 2e 42 41 46 02 4f 41
       16.043901 9.764524 12.136236 12.938055
000030 38 8a 2e 41 d0 a6 ee 40 11 d4 c2 41
       10.908745 7.457863 24.353548

weight f4 [1, 15]
000000 7f 7e 31 41 6d a2 2d 41 ee 6a 32 41 d8 5a 30 41
       11.093383 10.852155 11.151106 11.022179
000010 43 e4 2b 41 74 30 2c 41 a7 97 31 41 83 83 2d 41
       10.743228 10.761829 11.0995245 10.844607
000020 52 8f 2d 41 cb f8 2c 41 5c 83 30 41 1e 53 2e 41
       10.84749 10.81074 11.03207 10.895292
000030 ba f7 2d 41 c5 8b 30 41 20 e2 2b 41
       10.87298 11.034123 10.742706
